…
I1111 04:53:30.101958 11674 net.cpp:47] Initializing net from parameters:
state {
phase: TRAIN
}
layer {
name: "data"
type: "Data"
top: "data"
include {
phase: TRAIN
}
transform_param {
mirror: true
crop_size: 224
mean_file: "/home/nvidia/imagenet_lmdb/mean.binaryproto"
}
data_param {
source: "/home/nvidia/imagenet_lmdb/train_data_lmdb"
batch_size: 48
backend: LMDB
prefetch: 8
}
}
layer {
name: "label"
type: "Data"
top: "label"
include {
phase: TRAIN
}
data_param {
source: "/home/nvidia/imagenet_lmdb/train_labels_one_hot_lmdb"
batch_size: 48
backend: LMDB
prefetch: 8
}
}
layer {
name: "slicer_label"
type: "Slice"
bottom: "label"
top: "label1_one_hot"
top: "label2_one_hot"
top: "label3_one_hot"
slice_param {
slice_point: 1
slice_point: 2
axis: 1
}
}
layer {
name: "argmax_label1"
type: "ArgMax"
bottom: "label1_one_hot"
top: "label1"
}
layer {
name: "argmax_label2"
type: "ArgMax"
bottom: "label2_one_hot"
top: "label2"
}
layer {
name: "argmax_label3"
type: "ArgMax"
bottom: "label3_one_hot"
top: "label3"
}
layer {
name: "conv1/7x7_s2"
type: "Convolution"
bottom: "data"
top: "conv1/7x7_s2"
param {
lr_mult: 1
decay_mult: 1
}
param {
lr_mult: 2
decay_mult: 0
}
convolution_param {
num_output: 64
pad: 3
kernel_size: 7
stride: 2
weight_filler {
type: "xavier"
std: 0.1
}
bias_filler {
type: "constant"
value: 0.2
}
}
}
layer {
name: "conv1/relu_7x7"
type: "ReLU"
bottom: "conv1/7x7_s2"
top: "conv1/7x7_s2"
}
layer {
name: "pool1/3x3_s2"
type: "Pooling"
bottom: "conv1/7x7_s2"
top: "pool1/3x3_s2"
pooling_param {
pool: MAX
kernel_size: 3
stride: 2
}
}
layer {
name: "pool1/norm1"
type: "LRN"
bottom: "pool1/3x3_s2"
top: "pool1/norm1"
lrn_param {
local_size: 5
alpha: 0.0001
beta: 0.75
}
}
layer {
name: "conv2/3x3_reduce"
type: "Convolution"
bottom: "pool1/norm1"
top: "conv2/3x3_reduce"
param {
lr_mult: 1
decay_mult: 1
}
param {
lr_mult: 2
decay_mult: 0
}
convolution_param {
num_output: 64
kernel_size: 1
weight_filler {
type: "xavier"
std: 0.1
}
bias_filler {
type: "constant"
value: 0.2
}
}
}
layer {
name: "conv2/relu_3x3_reduce"
type: "ReLU"
bottom: "conv2/3x3_reduce"
top: "conv2/3x3_reduce"
}
layer {
name: "conv2/3x3"
type: "Convolution"
bottom: "conv2/3x3_reduce"
top: "conv2/3x3"
param {
lr_mult: 1
decay_mult: 1
}
param {
lr_mult: 2
decay_mult: 0
}
convolution_param {
num_output: 192
pad: 1
kernel_size: 3
weight_filler {
type: "xavier"
std: 0.03
}
bias_filler {
type: "constant"
value: 0.2
}
}
}
layer {
name: "conv2/relu_3x3"
type: "ReLU"
bottom: "conv2/3x3"
top: "conv2/3x3"
}
layer {
name: "conv2/norm2"
type: "LRN"
bottom: "conv2/3x3"
top: "conv2/norm2"
lrn_param {
local_size: 5
alpha: 0.0001
beta: 0.75
}
}
layer {
name: "pool2/3x3_s2"
type: "Pooling"
bottom: "conv2/norm2"
top: "pool2/3x3_s2"
pooling_param {
pool: MAX
kernel_size: 3
stride: 2
}
}
layer {
name: "inception_3a/1x1"
type: "Convolution"
bottom: "pool2/3x3_s2"
top: "inception_3a/1x1"
param {
lr_mult: 1
decay_mult: 1
}
param {
lr_mult: 2
decay_mult: 0
}
convolution_param {
num_output: 64
kernel_size: 1
weight_filler {
type: "xavier"
std: 0.03
}
bias_filler {
type: "constant"
value: 0.2
}
}
}
layer {
name: "inception_3a/relu_1x1"
type: "ReLU"
bottom: "inception_3a/1x1"
top: "inception_3a/1x1"
}
layer {
name: "inception_3a/3x3_reduce"
type: "Convolution"
bottom: "pool2/3x3_s2"
top: "inception_3a/3x3_reduce"
param {
lr_mult: 1
decay_mult: 1
}
param {
lr_mult: 2
decay_mult: 0
}
convolution_param {
num_output: 96
kernel_size: 1
weight_filler {
type: "xavier"
std: 0.09
}
bias_filler {
type: "constant"
value: 0.2
}
}
}
layer {
name: "inception_3a/relu_3x3_reduce"
type: "ReLU"
bottom: "inception_3a/3x3_reduce"
top: "inception_3a/3x3_reduce"
}
layer {
name: "inception_3a/3x3"
type: "Convolution"
bottom: "inception_3a/3x3_reduce"
top: "inception_3a/3x3"
param {
lr_mult: 1
decay_mult: 1
}
param {
lr_mult: 2
decay_mult: 0
}
convolution_param {
num_output: 128
pad: 1
kernel_size: 3
weight_filler {
type: "xavier"
std: 0.03
}
bias_filler {
type: "constant"
value: 0.2
}
}
}
layer {
name: "inception_3a/relu_3x3"
type: "ReLU"
bottom: "inception_3a/3x3"
top: "inception_3a/3x3"
}
layer {
name: "inception_3a/5x5_reduce"
type: "Convolution"
bottom: "pool2/3x3_s2"
top: "inception_3a/5x5_reduce"
param {
lr_mult: 1
decay_mult: 1
}
param {
lr_mult: 2
decay_mult: 0
}
convolution_param {
num_output: 16
kernel_size: 1
weight_filler {
type: "xavier"
std: 0.2
}
bias_filler {
type: "constant"
value: 0.2
}
}
}
layer {
name: "inception_3a/relu_5x5_reduce"
type: "ReLU"
bottom: "inception_3a/5x5_reduce"
top: "inception_3a/5x5_reduce"
}
layer {
name: "inception_3a/5x5"
type: "Convolution"
bottom: "inception_3a/5x5_reduce"
top: "inception_3a/5x5"
param {
lr_mult: 1
decay_mult: 1
}
param {
lr_mult: 2
decay_mult: 0
}
convolution_param {
num_output: 32
pad: 2
kernel_size: 5
weight_filler {
type: "xavier"
std: 0.03
}
bias_filler {
type: "constant"
value: 0.2
}
}
}
layer {
name: "inception_3a/relu_5x5"
type: "ReLU"
bottom: "inception_3a/5x5"
top: "inception_3a/5x5"
}
layer {
name: "inception_3a/pool"
type: "Pooling"
bottom: "pool2/3x3_s2"
top: "inception_3a/pool"
pooling_param {
pool: MAX
kernel_size: 3
stride: 1
pad: 1
}
}
layer {
name: "inception_3a/pool_proj"
type: "Convolution"
bottom: "inception_3a/pool"
top: "inception_3a/pool_proj"
param {
lr_mult: 1
decay_mult: 1
}
param {
lr_mult: 2
decay_mult: 0
}
convolution_param {
num_output: 32
kernel_size: 1
weight_filler {
type: "xavier"
std: 0.1
}
bias_filler {
type: "constant"
value: 0.2
}
}
}
layer {
name: "inception_3a/relu_pool_proj"
type: "ReLU"
bottom: "inception_3a/pool_proj"
top: "inception_3a/pool_proj"
}
layer {
name: "inception_3a/output"
type: "Concat"
bottom: "inception_3a/1x1"
bottom: "inception_3a/3x3"
bottom: "inception_3a/5x5"
bottom: "inception_3a/pool_proj"
top: "inception_3a/output"
}
layer {
name: "inception_3b/1x1"
type: "Convolution"
bottom: "inception_3a/output"
top: "inception_3b/1x1"
param {
lr_mult: 1
decay_mult: 1
}
param {
lr_mult: 2
decay_mult: 0
}
convolution_param {
num_output: 128
kernel_size: 1
weight_filler {
type: "xavier"
std: 0.03
}
bias_filler {
type: "constant"
value: 0.2
}
}
}
layer {
name: "inception_3b/relu_1x1"
type: "ReLU"
bottom: "inception_3b/1x1"
top: "inception_3b/1x1"
}
layer {
name: "inception_3b/3x3_reduce"
type: "Convolution"
bottom: "inception_3a/output"
top: "inception_3b/3x3_reduce"
param {
lr_mult: 1
decay_mult: 1
}
param {
lr_mult: 2
decay_mult: 0
}
convolution_param {
num_output: 128
kernel_size: 1
weight_filler {
type: "xavier"
std: 0.09
}
bias_filler {
type: "constant"
value: 0.2
}
}
}
layer {
name: "inception_3b/relu_3x3_reduce"
type: "ReLU"
bottom: "inception_3b/3x3_reduce"
top: "inception_3b/3x3_reduce"
}
layer {
name: "inception_3b/3x3"
type: "Convolution"
bottom: "inception_3b/3x3_reduce"
top: "inception_3b/3x3"
param {
lr_mult: 1
decay_mult: 1
}
param {
lr_mult: 2
decay_mult: 0
}
convolution_param {
num_output: 192
pad: 1
kernel_size: 3
weight_filler {
type: "xavier"
std: 0.03
}
bias_filler {
type: "constant"
value: 0.2
}
}
}
layer {
name: "inception_3b/relu_3x3"
type: "ReLU"
bottom: "inception_3b/3x3"
top: "inception_3b/3x3"
}
layer {
name: "inception_3b/5x5_reduce"
type: "Convolution"
bottom: "inception_3a/output"
top: "inception_3b/5x5_reduce"
param {
lr_mult: 1
decay_mult: 1
}
param {
lr_mult: 2
decay_mult: 0
}
convolution_param {
num_output: 32
kernel_size: 1
weight_filler {
type: "xavier"
std: 0.2
}
bias_filler {
type: "constant"
value: 0.2
}
}
}
layer {
name: "inception_3b/relu_5x5_reduce"
type: "ReLU"
bottom: "inception_3b/5x5_reduce"
top: "inception_3b/5x5_reduce"
}
layer {
name: "inception_3b/5x5"
type: "Convolution"
bottom: "inception_3b/5x5_reduce"
top: "inception_3b/5x5"
param {
lr_mult: 1
decay_mult: 1
}
param {
lr_mult: 2
decay_mult: 0
}
convolution_param {
num_output: 96
pad: 2
kernel_size: 5
weight_filler {
type: "xavier"
std: 0.03
}
bias_filler {
type: "constant"
value: 0.2
}
}
}
layer {
name: "inception_3b/relu_5x5"
type: "ReLU"
bottom: "inception_3b/5x5"
top: "inception_3b/5x5"
}
layer {
name: "inception_3b/pool"
type: "Pooling"
bottom: "inception_3a/output"
top: "inception_3b/pool"
pooling_param {
pool: MAX
kernel_size: 3
stride: 1
pad: 1
}
}
layer {
name: "inception_3b/pool_proj"
type: "Convolution"
bottom: "inception_3b/pool"
top: "inception_3b/pool_proj"
param {
lr_mult: 1
decay_mult: 1
}
param {
lr_mult: 2
decay_mult: 0
}
convolution_param {
num_output: 64
kernel_size: 1
weight_filler {
type: "xavier"
std: 0.1
}
bias_filler {
type: "constant"
value: 0.2
}
}
}
layer {
name: "inception_3b/relu_pool_proj"
type: "ReLU"
bottom: "inception_3b/pool_proj"
top: "inception_3b/pool_proj"
}
layer {
name: "inception_3b/output"
type: "Concat"
bottom: "inception_3b/1x1"
bottom: "inception_3b/3x3"
bottom: "inception_3b/5x5"
bottom: "inception_3b/pool_proj"
top: "inception_3b/output"
}
layer {
name: "pool3/3x3_s2"
type: "Pooling"
bottom: "inception_3b/output"
top: "pool3/3x3_s2"
pooling_param {
pool: MAX
kernel_size: 3
stride: 2
}
}
layer {
name: "inception_4a/1x1"
type: "Convolution"
bottom: "pool3/3x3_s2"
top: "inception_4a/1x1"
param {
lr_mult: 1
decay_mult: 1
}
param {
lr_mult: 2
decay_mult: 0
}
convolution_param {
num_output: 192
kernel_size: 1
weight_filler {
type: "xavier"
std: 0.03
}
bias_filler {
type: "constant"
value: 0.2
}
}
}
layer {
name: "inception_4a/relu_1x1"
type: "ReLU"
bottom: "inception_4a/1x1"
top: "inception_4a/1x1"
}
layer {
name: "inception_4a/3x3_reduce"
type: "Convolution"
bottom: "pool3/3x3_s2"
top: "inception_4a/3x3_reduce"
param {
lr_mult: 1
decay_mult: 1
}
param {
lr_mult: 2
decay_mult: 0
}
convolution_param {
num_output: 96
kernel_size: 1
weight_filler {
type: "xavier"
std: 0.09
}
bias_filler {
type: "constant"
value: 0.2
}
}
}
layer {
name: "inception_4a/relu_3x3_reduce"
type: "ReLU"
bottom: "inception_4a/3x3_reduce"
top: "inception_4a/3x3_reduce"
}
layer {
name: "inception_4a/3x3"
type: "Convolution"
bottom: "inception_4a/3x3_reduce"
top: "inception_4a/3x3"
param {
lr_mult: 1
decay_mult: 1
}
param {
lr_mult: 2
decay_mult: 0
}
convolution_param {
num_output: 208
pad: 1
kernel_size: 3
weight_filler {
type: "xavier"
std: 0.03
}
bias_filler {
type: "constant"
value: 0.2
}
}
}
layer {
name: "inception_4a/relu_3x3"
type: "ReLU"
bottom: "inception_4a/3x3"
top: "inception_4a/3x3"
}
layer {
name: "inception_4a/5x5_reduce"
type: "Convolution"
bottom: "pool3/3x3_s2"
top: "inception_4a/5x5_reduce"
param {
lr_mult: 1
decay_mult: 1
}
param {
lr_mult: 2
decay_mult: 0
}
convolution_param {
num_output: 16
kernel_size: 1
weight_filler {
type: "xavier"
std: 0.2
}
bias_filler {
type: "constant"
value: 0.2
}
}
}
layer {
name: "inception_4a/relu_5x5_reduce"
type: "ReLU"
bottom: "inception_4a/5x5_reduce"
top: "inception_4a/5x5_reduce"
}
layer {
name: "inception_4a/5x5"
type: "Convolution"
bottom: "inception_4a/5x5_reduce"
top: "inception_4a/5x5"
param {
lr_mult: 1
decay_mult: 1
}
param {
lr_mult: 2
decay_mult: 0
}
convolution_param {
num_output: 48
pad: 2
kernel_size: 5
weight_filler {
type: "xavier"
std: 0.03
}
bias_filler {
type: "constant"
value: 0.2
}
}
}
layer {
name: "inception_4a/relu_5x5"
type: "ReLU"
bottom: "inception_4a/5x5"
top: "inception_4a/5x5"
}
layer {
name: "inception_4a/pool"
type: "Pooling"
bottom: "pool3/3x3_s2"
top: "inception_4a/pool"
pooling_param {
pool: MAX
kernel_size: 3
stride: 1
pad: 1
}
}
layer {
name: "inception_4a/pool_proj"
type: "Convolution"
bottom: "inception_4a/pool"
top: "inception_4a/pool_proj"
param {
lr_mult: 1
decay_mult: 1
}
param {
lr_mult: 2
decay_mult: 0
}
convolution_param {
num_output: 64
kernel_size: 1
weight_filler {
type: "xavier"
std: 0.1
}
bias_filler {
type: "constant"
value: 0.2
}
}
}
layer {
name: "inception_4a/relu_pool_proj"
type: "ReLU"
bottom: "inception_4a/pool_proj"
top: "inception_4a/pool_proj"
}
layer {
name: "inception_4a/output"
type: "Concat"
bottom: "inception_4a/1x1"
bottom: "inception_4a/3x3"
bottom: "inception_4a/5x5"
bottom: "inception_4a/pool_proj"
top: "inception_4a/output"
}
layer {
name: "loss1/ave_pool"
type: "Pooling"
bottom: "inception_4a/output"
top: "loss1/ave_pool"
pooling_param {
pool: AVE
kernel_size: 5
stride: 3
}
}
layer {
name: "loss1/conv"
type: "Convolution"
bottom: "loss1/ave_pool"
top: "loss1/conv"
param {
lr_mult: 1
decay_mult: 1
}
param {
lr_mult: 2
decay_mult: 0
}
convolution_param {
num_output: 128
kernel_size: 1
weight_filler {
type: "xavier"
std: 0.08
}
bias_filler {
type: "constant"
value: 0.2
}
}
}
layer {
name: "loss1/relu_conv"
type: "ReLU"
bottom: "loss1/conv"
top: "loss1/conv"
}
layer {
name: "loss1/fc"
type: "InnerProduct"
bottom: "loss1/conv"
top: "loss1/fc"
param {
lr_mult: 1
decay_mult: 1
}
param {
lr_mult: 2
decay_mult: 0
}
inner_product_param {
num_output: 1024
weight_filler {
type: "xavier"
std: 0.02
}
bias_filler {
type: "constant"
value: 0.2
}
}
}
layer {
name: "loss1/relu_fc"
type: "ReLU"
bottom: "loss1/fc"
top: "loss1/fc"
}
layer {
name: "loss1/drop_fc"
type: "Dropout"
bottom: "loss1/fc"
top: "loss1/fc"
dropout_param {
dropout_ratio: 0.7
}
}
layer {
name: "loss1/classifier"
type: "InnerProduct"
bottom: "loss1/fc"
top: "loss1/classifier"
param {
lr_mult: 1
decay_mult: 1
}
param {
lr_mult: 2
decay_mult: 0
}
inner_product_param {
num_output: 69
weight_filler {
type: "xavier"
std: 0.0009765625
}
bias_filler {
type: "constant"
value: 0
}
}
}
layer {
name: "inception_4b/1x1"
type: "Convolution"
bottom: "inception_4a/output"
top: "inception_4b/1x1"
param {
lr_mult: 1
decay_mult: 1
}
param {
lr_mult: 2
decay_mult: 0
}
convolution_param {
num_output: 160
kernel_size: 1
weight_filler {
type: "xavier"
std: 0.03
}
bias_filler {
type: "constant"
value: 0.2
}
}
}
layer {
name: "inception_4b/relu_1x1"
type: "ReLU"
bottom: "inception_4b/1x1"
top: "inception_4b/1x1"
}
layer {
name: "inception_4b/3x3_reduce"
type: "Convolution"
bottom: "inception_4a/output"
top: "inception_4b/3x3_reduce"
param {
lr_mult: 1
decay_mult: 1
}
param {
lr_mult: 2
decay_mult: 0
}
convolution_param {
num_output: 112
kernel_size: 1
weight_filler {
type: "xavier"
std: 0.09
}
bias_filler {
type: "constant"
value: 0.2
}
}
}
layer {
name: "inception_4b/relu_3x3_reduce"
type: "ReLU"
bottom: "inception_4b/3x3_reduce"
top: "inception_4b/3x3_reduce"
}
layer {
name: "inception_4b/3x3"
type: "Convolution"
bottom: "inception_4b/3x3_reduce"
top: "inception_4b/3x3"
param {
lr_mult: 1
decay_mult: 1
}
param {
lr_mult: 2
decay_mult: 0
}
convolution_param {
num_output: 224
pad: 1
kernel_size: 3
weight_filler {
type: "xavier"
std: 0.03
}
bias_filler {
type: "constant"
value: 0.2
}
}
}
layer {
name: "inception_4b/relu_3x3"
type: "ReLU"
bottom: "inception_4b/3x3"
top: "inception_4b/3x3"
}
layer {
name: "inception_4b/5x5_reduce"
type: "Convolution"
bottom: "inception_4a/output"
top: "inception_4b/5x5_reduce"
param {
lr_mult: 1
decay_mult: 1
}
param {
lr_mult: 2
decay_mult: 0
}
convolution_param {
num_output: 24
kernel_size: 1
weight_filler {
type: "xavier"
std: 0.2
}
bias_filler {
type: "constant"
value: 0.2
}
}
}
layer {
name: "inception_4b/relu_5x5_reduce"
type: "ReLU"
bottom: "inception_4b/5x5_reduce"
top: "inception_4b/5x5_reduce"
}
layer {
name: "inception_4b/5x5"
type: "Convolution"
bottom: "inception_4b/5x5_reduce"
top: "inception_4b/5x5"
param {
lr_mult: 1
decay_mult: 1
}
param {
lr_mult: 2
decay_mult: 0
}
convolution_param {
num_output: 64
pad: 2
kernel_size: 5
weight_filler {
type: "xavier"
std: 0.03
}
bias_filler {
type: "constant"
value: 0.2
}
}
}
layer {
name: "inception_4b/relu_5x5"
type: "ReLU"
bottom: "inception_4b/5x5"
top: "inception_4b/5x5"
}
layer {
name: "inception_4b/pool"
type: "Pooling"
bottom: "inception_4a/output"
top: "inception_4b/pool"
pooling_param {
pool: MAX
kernel_size: 3
stride: 1
pad: 1
}
}
layer {
name: "inception_4b/pool_proj"
type: "Convolution"
bottom: "inception_4b/pool"
top: "inception_4b/pool_proj"
param {
lr_mult: 1
decay_mult: 1
}
param {
lr_mult: 2
decay_mult: 0
}
convolution_param {
num_output: 64
kernel_size: 1
weight_filler {
type: "xavier"
std: 0.1
}
bias_filler {
type: "constant"
value: 0.2
}
}
}
layer {
name: "inception_4b/relu_pool_proj"
type: "ReLU"
bottom: "inception_4b/pool_proj"
top: "inception_4b/pool_proj"
}
layer {
name: "inception_4b/output"
type: "Concat"
bottom: "inception_4b/1x1"
bottom: "inception_4b/3x3"
bottom: "inception_4b/5x5"
bottom: "inception_4b/pool_proj"
top: "inception_4b/output"
}
layer {
name: "inception_4c/1x1"
type: "Convolution"
bottom: "inception_4b/output"
top: "inception_4c/1x1"
param {
lr_mult: 1
decay_mult: 1
}
param {
lr_mult: 2
decay_mult: 0
}
convolution_param {
num_output: 128
kernel_size: 1
weight_filler {
type: "xavier"
std: 0.03
}
bias_filler {
type: "constant"
value: 0.2
}
}
}
layer {
name: "inception_4c/relu_1x1"
type: "ReLU"
bottom: "inception_4c/1x1"
top: "inception_4c/1x1"
}
layer {
name: "inception_4c/3x3_reduce"
type: "Convolution"
bottom: "inception_4b/output"
top: "inception_4c/3x3_reduce"
param {
lr_mult: 1
decay_mult: 1
}
param {
lr_mult: 2
decay_mult: 0
}
convolution_param {
num_output: 128
kernel_size: 1
weight_filler {
type: "xavier"
std: 0.09
}
bias_filler {
type: "constant"
value: 0.2
}
}
}
layer {
name: "inception_4c/relu_3x3_reduce"
type: "ReLU"
bottom: "inception_4c/3x3_reduce"
top: "inception_4c/3x3_reduce"
}
layer {
name: "inception_4c/3x3"
type: "Convolution"
bottom: "inception_4c/3x3_reduce"
top: "inception_4c/3x3"
param {
lr_mult: 1
decay_mult: 1
}
param {
lr_mult: 2
decay_mult: 0
}
convolution_param {
num_output: 256
pad: 1
kernel_size: 3
weight_filler {
type: "xavier"
std: 0.03
}
bias_filler {
type: "constant"
value: 0.2
}
}
}
layer {
name: "inception_4c/relu_3x3"
type: "ReLU"
bottom: "inception_4c/3x3"
top: "inception_4c/3x3"
}
layer {
name: "inception_4c/5x5_reduce"
type: "Convolution"
bottom: "inception_4b/output"
top: "inception_4c/5x5_reduce"
param {
lr_mult: 1
decay_mult: 1
}
param {
lr_mult: 2
decay_mult: 0
}
convolution_param {
num_output: 24
kernel_size: 1
weight_filler {
type: "xavier"
std: 0.2
}
bias_filler {
type: "constant"
value: 0.2
}
}
}
layer {
name: "inception_4c/relu_5x5_reduce"
type: "ReLU"
bottom: "inception_4c/5x5_reduce"
top: "inception_4c/5x5_reduce"
}
layer {
name: "inception_4c/5x5"
type: "Convolution"
bottom: "inception_4c/5x5_reduce"
top: "inception_4c/5x5"
param {
lr_mult: 1
decay_mult: 1
}
param {
lr_mult: 2
decay_mult: 0
}
convolution_param {
num_output: 64
pad: 2
kernel_size: 5
weight_filler {
type: "xavier"
std: 0.03
}
bias_filler {
type: "constant"
value: 0.2
}
}
}
layer {
name: "inception_4c/relu_5x5"
type: "ReLU"
bottom: "inception_4c/5x5"
top: "inception_4c/5x5"
}
layer {
name: "inception_4c/pool"
type: "Pooling"
bottom: "inception_4b/output"
top: "inception_4c/pool"
pooling_param {
pool: MAX
kernel_size: 3
stride: 1
pad: 1
}
}
layer {
name: "inception_4c/pool_proj"
type: "Convolution"
bottom: "inception_4c/pool"
top: "inception_4c/pool_proj"
param {
lr_mult: 1
decay_mult: 1
}
param {
lr_mult: 2
decay_mult: 0
}
convolution_param {
num_output: 64
kernel_size: 1
weight_filler {
type: "xavier"
std: 0.1
}
bias_filler {
type: "constant"
value: 0.2
}
}
}
layer {
name: "inception_4c/relu_pool_proj"
type: "ReLU"
bottom: "inception_4c/pool_proj"
top: "inception_4c/pool_proj"
}
layer {
name: "inception_4c/output"
type: "Concat"
bottom: "inception_4c/1x1"
bottom: "inception_4c/3x3"
bottom: "inception_4c/5x5"
bottom: "inception_4c/pool_proj"
top: "inception_4c/output"
}
layer {
name: "inception_4d/1x1"
type: "Convolution"
bottom: "inception_4c/output"
top: "inception_4d/1x1"
param {
lr_mult: 1
decay_mult: 1
}
param {
lr_mult: 2
decay_mult: 0
}
convolution_param {
num_output: 112
kernel_size: 1
weight_filler {
type: "xavier"
std: 0.03
}
bias_filler {
type: "constant"
value: 0.2
}
}
}
layer {
name: "inception_4d/relu_1x1"
type: "ReLU"
bottom: "inception_4d/1x1"
top: "inception_4d/1x1"
}
layer {
name: "inception_4d/3x3_reduce"
type: "Convolution"
bottom: "inception_4c/output"
top: "inception_4d/3x3_reduce"
param {
lr_mult: 1
decay_mult: 1
}
param {
lr_mult: 2
decay_mult: 0
}
convolution_param {
num_output: 144
kernel_size: 1
weight_filler {
type: "xavier"
std: 0.09
}
bias_filler {
type: "constant"
value: 0.2
}
}
}
layer {
name: "inception_4d/relu_3x3_reduce"
type: "ReLU"
bottom: "inception_4d/3x3_reduce"
top: "inception_4d/3x3_reduce"
}
layer {
name: "inception_4d/3x3"
type: "Convolution"
bottom: "inception_4d/3x3_reduce"
top: "inception_4d/3x3"
param {
lr_mult: 1
decay_mult: 1
}
param {
lr_mult: 2
decay_mult: 0
}
convolution_param {
num_output: 288
pad: 1
kernel_size: 3
weight_filler {
type: "xavier"
std: 0.03
}
bias_filler {
type: "constant"
value: 0.2
}
}
}
layer {
name: "inception_4d/relu_3x3"
type: "ReLU"
bottom: "inception_4d/3x3"
top: "inception_4d/3x3"
}
layer {
name: "inception_4d/5x5_reduce"
type: "Convolution"
bottom: "inception_4c/output"
top: "inception_4d/5x5_reduce"
param {
lr_mult: 1
decay_mult: 1
}
param {
lr_mult: 2
decay_mult: 0
}
convolution_param {
num_output: 32
kernel_size: 1
weight_filler {
type: "xavier"
std: 0.2
}
bias_filler {
type: "constant"
value: 0.2
}
}
}
layer {
name: "inception_4d/relu_5x5_reduce"
type: "ReLU"
bottom: "inception_4d/5x5_reduce"
top: "inception_4d/5x5_reduce"
}
layer {
name: "inception_4d/5x5"
type: "Convolution"
bottom: "inception_4d/5x5_reduce"
top: "inception_4d/5x5"
param {
lr_mult: 1
decay_mult: 1
}
param {
lr_mult: 2
decay_mult: 0
}
convolution_param {
num_output: 64
pad: 2
kernel_size: 5
weight_filler {
type: "xavier"
std: 0.03
}
bias_filler {
type: "constant"
value: 0.2
}
}
}
layer {
name: "inception_4d/relu_5x5"
type: "ReLU"
bottom: "inception_4d/5x5"
top: "inception_4d/5x5"
}
layer {
name: "inception_4d/pool"
type: "Pooling"
bottom: "inception_4c/output"
top: "inception_4d/pool"
pooling_param {
pool: MAX
kernel_size: 3
stride: 1
pad: 1
}
}
layer {
name: "inception_4d/pool_proj"
type: "Convolution"
bottom: "inception_4d/pool"
top: "inception_4d/pool_proj"
param {
lr_mult: 1
decay_mult: 1
}
param {
lr_mult: 2
decay_mult: 0
}
convolution_param {
num_output: 64
kernel_size: 1
weight_filler {
type: "xavier"
std: 0.1
}
bias_filler {
type: "constant"
value: 0.2
}
}
}
layer {
name: "inception_4d/relu_pool_proj"
type: "ReLU"
bottom: "inception_4d/pool_proj"
top: "inception_4d/pool_proj"
}
layer {
name: "inception_4d/output"
type: "Concat"
bottom: "inception_4d/1x1"
bottom: "inception_4d/3x3"
bottom: "inception_4d/5x5"
bottom: "inception_4d/pool_proj"
top: "inception_4d/output"
}
layer {
name: "loss2/ave_pool"
type: "Pooling"
bottom: "inception_4d/output"
top: "loss2/ave_pool"
pooling_param {
pool: AVE
kernel_size: 5
stride: 3
}
}
layer {
name: "loss2/conv"
type: "Convolution"
bottom: "loss2/ave_pool"
top: "loss2/conv"
param {
lr_mult: 1
decay_mult: 1
}
param {
lr_mult: 2
decay_mult: 0
}
convolution_param {
num_output: 128
kernel_size: 1
weight_filler {
type: "xavier"
std: 0.08
}
bias_filler {
type: "constant"
value: 0.2
}
}
}
layer {
name: "loss2/relu_conv"
type: "ReLU"
bottom: "loss2/conv"
top: "loss2/conv"
}
layer {
name: "loss2/fc"
type: "InnerProduct"
bottom: "loss2/conv"
top: "loss2/fc"
param {
lr_mult: 1
decay_mult: 1
}
param {
lr_mult: 2
decay_mult: 0
}
inner_product_param {
num_output: 1024
weight_filler {
type: "xavier"
std: 0.02
}
bias_filler {
type: "constant"
value: 0.2
}
}
}
layer {
name: "loss2/relu_fc"
type: "ReLU"
bottom: "loss2/fc"
top: "loss2/fc"
}
layer {
name: "loss2/drop_fc"
type: "Dropout"
bottom: "loss2/fc"
top: "loss2/fc"
dropout_param {
dropout_ratio: 0.7
}
}
layer {
name: "loss2/classifier"
type: "InnerProduct"
bottom: "loss2/fc"
top: "loss2/classifier"
param {
lr_mult: 1
decay_mult: 1
}
param {
lr_mult: 2
decay_mult: 0
}
inner_product_param {
num_output: 333
weight_filler {
type: "xavier"
std: 0.0009765625
}
bias_filler {
type: "constant"
value: 0
}
}
}
layer {
name: "inception_4e/1x1"
type: "Convolution"
bottom: "inception_4d/output"
top: "inception_4e/1x1"
param {
lr_mult: 1
decay_mult: 1
}
param {
lr_mult: 2
decay_mult: 0
}
convolution_param {
num_output: 256
kernel_size: 1
weight_filler {
type: "xavier"
std: 0.03
}
bias_filler {
type: "constant"
value: 0.2
}
}
}
layer {
name: "inception_4e/relu_1x1"
type: "ReLU"
bottom: "inception_4e/1x1"
top: "inception_4e/1x1"
}
layer {
name: "inception_4e/3x3_reduce"
type: "Convolution"
bottom: "inception_4d/output"
top: "inception_4e/3x3_reduce"
param {
lr_mult: 1
decay_mult: 1
}
param {
lr_mult: 2
decay_mult: 0
}
convolution_param {
num_output: 160
kernel_size: 1
weight_filler {
type: "xavier"
std: 0.09
}
bias_filler {
type: "constant"
value: 0.2
}
}
}
layer {
name: "inception_4e/relu_3x3_reduce"
type: "ReLU"
bottom: "inception_4e/3x3_reduce"
top: "inception_4e/3x3_reduce"
}
layer {
name: "inception_4e/3x3"
type: "Convolution"
bottom: "inception_4e/3x3_reduce"
top: "inception_4e/3x3"
param {
lr_mult: 1
decay_mult: 1
}
param {
lr_mult: 2
decay_mult: 0
}
convolution_param {
num_output: 320
pad: 1
kernel_size: 3
weight_filler {
type: "xavier"
std: 0.03
}
bias_filler {
type: "constant"
value: 0.2
}
}
}
layer {
name: "inception_4e/relu_3x3"
type: "ReLU"
bottom: "inception_4e/3x3"
top: "inception_4e/3x3"
}
layer {
name: "inception_4e/5x5_redu
I1111 04:53:30.102949 11674 layer_factory.hpp:75] Creating layer data
I1111 04:53:30.103164 11674 net.cpp:99] Creating Layer data
I1111 04:53:30.103178 11674 net.cpp:409] data -> data
I1111 04:53:30.103271 11674 net.cpp:131] Setting up data
I1111 04:53:30.104941 11678 db.cpp:34] Opened lmdb /home/nvidia/imagenet_lmdb/train_data_lmdb
I1111 04:53:30.105404 11674 data_layer.cpp:60] output data size: 48,3,224,224
I1111 04:53:30.105425 11674 data_transformer.cpp:23] Loading mean file from: /home/nvidia/imagenet_lmdb/mean.binaryproto
I1111 04:53:30.200685 11674 net.cpp:140] Top shape: 48 3 224 224 (7225344)
I1111 04:53:30.200713 11674 layer_factory.hpp:75] Creating layer label
I1111 04:53:30.200861 11674 net.cpp:99] Creating Layer label
I1111 04:53:30.200871 11674 net.cpp:409] label -> label
I1111 04:53:30.200886 11674 net.cpp:131] Setting up label
I1111 04:53:30.203703 11680 db.cpp:34] Opened lmdb /home/nvidia/imagenet_lmdb/train_labels_one_hot_lmdb
I1111 04:53:30.203764 11674 data_layer.cpp:60] output data size: 48,3,1000,1
I1111 04:53:30.213166 11679 blocking_queue.cpp:50] Waiting for data
I1111 04:53:30.216815 11674 net.cpp:140] Top shape: 48 3 1000 1 (144000)
I1111 04:53:30.216831 11674 layer_factory.hpp:75] Creating layer slicer_label
I1111 04:53:30.216873 11674 net.cpp:99] Creating Layer slicer_label
I1111 04:53:30.216886 11674 net.cpp:453] slicer_label <- label
I1111 04:53:30.216907 11674 net.cpp:409] slicer_label -> label1_one_hot
I1111 04:53:30.216922 11674 net.cpp:409] slicer_label -> label2_one_hot
I1111 04:53:30.216929 11674 net.cpp:409] slicer_label -> label3_one_hot
I1111 04:53:30.216936 11674 net.cpp:131] Setting up slicer_label
I1111 04:53:30.216948 11674 net.cpp:140] Top shape: 48 1 1000 1 (48000)
I1111 04:53:30.216953 11674 net.cpp:140] Top shape: 48 1 1000 1 (48000)
I1111 04:53:30.216958 11674 net.cpp:140] Top shape: 48 1 1000 1 (48000)
I1111 04:53:30.216961 11674 layer_factory.hpp:75] Creating layer argmax_label1
I1111 04:53:30.216971 11674 net.cpp:99] Creating Layer argmax_label1
I1111 04:53:30.216976 11674 net.cpp:453] argmax_label1 <- label1_one_hot
I1111 04:53:30.217015 11674 net.cpp:409] argmax_label1 -> label1
I1111 04:53:30.217021 11674 net.cpp:131] Setting up argmax_label1
I1111 04:53:30.217032 11674 net.cpp:140] Top shape: 48 1 1 1 (48)
I1111 04:53:30.217036 11674 layer_factory.hpp:75] Creating layer label1_argmax_label1_0_split
I1111 04:53:30.217046 11674 net.cpp:99] Creating Layer label1_argmax_label1_0_split
I1111 04:53:30.217049 11674 net.cpp:453] label1_argmax_label1_0_split <- label1
I1111 04:53:30.217056 11674 net.cpp:409] label1_argmax_label1_0_split -> label1_argmax_label1_0_split_0
I1111 04:53:30.217062 11674 net.cpp:409] label1_argmax_label1_0_split -> label1_argmax_label1_0_split_1
I1111 04:53:30.217069 11674 net.cpp:409] label1_argmax_label1_0_split -> label1_argmax_label1_0_split_2
I1111 04:53:30.217075 11674 net.cpp:131] Setting up label1_argmax_label1_0_split
I1111 04:53:30.217087 11674 net.cpp:140] Top shape: 48 1 1 1 (48)
I1111 04:53:30.217092 11674 net.cpp:140] Top shape: 48 1 1 1 (48)
I1111 04:53:30.217095 11674 net.cpp:140] Top shape: 48 1 1 1 (48)
I1111 04:53:30.217099 11674 layer_factory.hpp:75] Creating layer argmax_label2
I1111 04:53:30.217106 11674 net.cpp:99] Creating Layer argmax_label2
I1111 04:53:30.217109 11674 net.cpp:453] argmax_label2 <- label2_one_hot
I1111 04:53:30.217115 11674 net.cpp:409] argmax_label2 -> label2
I1111 04:53:30.217120 11674 net.cpp:131] Setting up argmax_label2
I1111 04:53:30.217125 11674 net.cpp:140] Top shape: 48 1 1 1 (48)
I1111 04:53:30.217129 11674 layer_factory.hpp:75] Creating layer label2_argmax_label2_0_split
I1111 04:53:30.217135 11674 net.cpp:99] Creating Layer label2_argmax_label2_0_split
I1111 04:53:30.217139 11674 net.cpp:453] label2_argmax_label2_0_split <- label2
I1111 04:53:30.217144 11674 net.cpp:409] label2_argmax_label2_0_split -> label2_argmax_label2_0_split_0
I1111 04:53:30.217149 11674 net.cpp:409] label2_argmax_label2_0_split -> label2_argmax_label2_0_split_1
I1111 04:53:30.217155 11674 net.cpp:409] label2_argmax_label2_0_split -> label2_argmax_label2_0_split_2
I1111 04:53:30.217161 11674 net.cpp:131] Setting up label2_argmax_label2_0_split
I1111 04:53:30.217166 11674 net.cpp:140] Top shape: 48 1 1 1 (48)
I1111 04:53:30.217170 11674 net.cpp:140] Top shape: 48 1 1 1 (48)
I1111 04:53:30.217175 11674 net.cpp:140] Top shape: 48 1 1 1 (48)
I1111 04:53:30.217177 11674 layer_factory.hpp:75] Creating layer argmax_label3
I1111 04:53:30.217182 11674 net.cpp:99] Creating Layer argmax_label3
I1111 04:53:30.217185 11674 net.cpp:453] argmax_label3 <- label3_one_hot
I1111 04:53:30.217192 11674 net.cpp:409] argmax_label3 -> label3
I1111 04:53:30.217196 11674 net.cpp:131] Setting up argmax_label3
I1111 04:53:30.217201 11674 net.cpp:140] Top shape: 48 1 1 1 (48)
I1111 04:53:30.217205 11674 layer_factory.hpp:75] Creating layer label3_argmax_label3_0_split
I1111 04:53:30.217211 11674 net.cpp:99] Creating Layer label3_argmax_label3_0_split
I1111 04:53:30.217214 11674 net.cpp:453] label3_argmax_label3_0_split <- label3
I1111 04:53:30.217219 11674 net.cpp:409] label3_argmax_label3_0_split -> label3_argmax_label3_0_split_0
I1111 04:53:30.217226 11674 net.cpp:409] label3_argmax_label3_0_split -> label3_argmax_label3_0_split_1
I1111 04:53:30.217231 11674 net.cpp:409] label3_argmax_label3_0_split -> label3_argmax_label3_0_split_2
I1111 04:53:30.217238 11674 net.cpp:131] Setting up label3_argmax_label3_0_split
I1111 04:53:30.217244 11674 net.cpp:140] Top shape: 48 1 1 1 (48)
I1111 04:53:30.217248 11674 net.cpp:140] Top shape: 48 1 1 1 (48)
I1111 04:53:30.217252 11674 net.cpp:140] Top shape: 48 1 1 1 (48)
I1111 04:53:30.217255 11674 layer_factory.hpp:75] Creating layer conv1/7x7_s2
I1111 04:53:30.217272 11674 net.cpp:99] Creating Layer conv1/7x7_s2
I1111 04:53:30.217275 11674 net.cpp:453] conv1/7x7_s2 <- data
I1111 04:53:30.217284 11674 net.cpp:409] conv1/7x7_s2 -> conv1/7x7_s2
I1111 04:53:30.217294 11674 net.cpp:131] Setting up conv1/7x7_s2
I1111 04:53:30.219614 11681 blocking_queue.cpp:50] Waiting for data
I1111 04:53:30.277209 11674 net.cpp:140] Top shape: 48 64 112 112 (38535168)
I1111 04:53:30.277266 11674 layer_factory.hpp:75] Creating layer conv1/relu_7x7
I1111 04:53:30.277282 11674 net.cpp:99] Creating Layer conv1/relu_7x7
I1111 04:53:30.277288 11674 net.cpp:453] conv1/relu_7x7 <- conv1/7x7_s2
I1111 04:53:30.277295 11674 net.cpp:396] conv1/relu_7x7 -> conv1/7x7_s2 (in-place)
I1111 04:53:30.277303 11674 net.cpp:131] Setting up conv1/relu_7x7
I1111 04:53:30.277371 11674 net.cpp:140] Top shape: 48 64 112 112 (38535168)
I1111 04:53:30.277377 11674 layer_factory.hpp:75] Creating layer pool1/3x3_s2
I1111 04:53:30.277389 11674 net.cpp:99] Creating Layer pool1/3x3_s2
I1111 04:53:30.277392 11674 net.cpp:453] pool1/3x3_s2 <- conv1/7x7_s2
I1111 04:53:30.277400 11674 net.cpp:409] pool1/3x3_s2 -> pool1/3x3_s2
I1111 04:53:30.277407 11674 net.cpp:131] Setting up pool1/3x3_s2
I1111 04:53:30.277753 11674 net.cpp:140] Top shape: 48 64 56 56 (9633792)
I1111 04:53:30.277761 11674 layer_factory.hpp:75] Creating layer pool1/norm1
I1111 04:53:30.277772 11674 net.cpp:99] Creating Layer pool1/norm1
I1111 04:53:30.277776 11674 net.cpp:453] pool1/norm1 <- pool1/3x3_s2
I1111 04:53:30.277782 11674 net.cpp:409] pool1/norm1 -> pool1/norm1
I1111 04:53:30.277791 11674 net.cpp:131] Setting up pool1/norm1
I1111 04:53:30.277803 11674 net.cpp:140] Top shape: 48 64 56 56 (9633792)
I1111 04:53:30.277807 11674 layer_factory.hpp:75] Creating layer conv2/3x3_reduce
I1111 04:53:30.277817 11674 net.cpp:99] Creating Layer conv2/3x3_reduce
I1111 04:53:30.277822 11674 net.cpp:453] conv2/3x3_reduce <- pool1/norm1
I1111 04:53:30.277827 11674 net.cpp:409] conv2/3x3_reduce -> conv2/3x3_reduce
I1111 04:53:30.277835 11674 net.cpp:131] Setting up conv2/3x3_reduce
I1111 04:53:30.279268 11674 net.cpp:140] Top shape: 48 64 56 56 (9633792)
I1111 04:53:30.279284 11674 layer_factory.hpp:75] Creating layer conv2/relu_3x3_reduce
I1111 04:53:30.279291 11674 net.cpp:99] Creating Layer conv2/relu_3x3_reduce
I1111 04:53:30.279295 11674 net.cpp:453] conv2/relu_3x3_reduce <- conv2/3x3_reduce
I1111 04:53:30.279301 11674 net.cpp:396] conv2/relu_3x3_reduce -> conv2/3x3_reduce (in-place)
I1111 04:53:30.279307 11674 net.cpp:131] Setting up conv2/relu_3x3_reduce
I1111 04:53:30.279369 11674 net.cpp:140] Top shape: 48 64 56 56 (9633792)
I1111 04:53:30.279374 11674 layer_factory.hpp:75] Creating layer conv2/3x3
I1111 04:53:30.279383 11674 net.cpp:99] Creating Layer conv2/3x3
I1111 04:53:30.279386 11674 net.cpp:453] conv2/3x3 <- conv2/3x3_reduce
I1111 04:53:30.279393 11674 net.cpp:409] conv2/3x3 -> conv2/3x3
I1111 04:53:30.279400 11674 net.cpp:131] Setting up conv2/3x3
I1111 04:53:30.280766 11674 net.cpp:140] Top shape: 48 192 56 56 (28901376)
I1111 04:53:30.280781 11674 layer_factory.hpp:75] Creating layer conv2/relu_3x3
I1111 04:53:30.280791 11674 net.cpp:99] Creating Layer conv2/relu_3x3
I1111 04:53:30.280794 11674 net.cpp:453] conv2/relu_3x3 <- conv2/3x3
I1111 04:53:30.280800 11674 net.cpp:396] conv2/relu_3x3 -> conv2/3x3 (in-place)
I1111 04:53:30.280807 11674 net.cpp:131] Setting up conv2/relu_3x3
I1111 04:53:30.280865 11674 net.cpp:140] Top shape: 48 192 56 56 (28901376)
I1111 04:53:30.280870 11674 layer_factory.hpp:75] Creating layer conv2/norm2
I1111 04:53:30.280877 11674 net.cpp:99] Creating Layer conv2/norm2
I1111 04:53:30.280881 11674 net.cpp:453] conv2/norm2 <- conv2/3x3
I1111 04:53:30.280886 11674 net.cpp:409] conv2/norm2 -> conv2/norm2
I1111 04:53:30.280892 11674 net.cpp:131] Setting up conv2/norm2
I1111 04:53:30.280900 11674 net.cpp:140] Top shape: 48 192 56 56 (28901376)
I1111 04:53:30.280903 11674 layer_factory.hpp:75] Creating layer pool2/3x3_s2
I1111 04:53:30.280910 11674 net.cpp:99] Creating Layer pool2/3x3_s2
I1111 04:53:30.280913 11674 net.cpp:453] pool2/3x3_s2 <- conv2/norm2
I1111 04:53:30.280918 11674 net.cpp:409] pool2/3x3_s2 -> pool2/3x3_s2
I1111 04:53:30.280925 11674 net.cpp:131] Setting up pool2/3x3_s2
I1111 04:53:30.280983 11674 net.cpp:140] Top shape: 48 192 28 28 (7225344)
I1111 04:53:30.280988 11674 layer_factory.hpp:75] Creating layer pool2/3x3_s2_pool2/3x3_s2_0_split
I1111 04:53:30.280998 11674 net.cpp:99] Creating Layer pool2/3x3_s2_pool2/3x3_s2_0_split
I1111 04:53:30.281018 11674 net.cpp:453] pool2/3x3_s2_pool2/3x3_s2_0_split <- pool2/3x3_s2
I1111 04:53:30.281025 11674 net.cpp:409] pool2/3x3_s2_pool2/3x3_s2_0_split -> pool2/3x3_s2_pool2/3x3_s2_0_split_0
I1111 04:53:30.281033 11674 net.cpp:409] pool2/3x3_s2_pool2/3x3_s2_0_split -> pool2/3x3_s2_pool2/3x3_s2_0_split_1
I1111 04:53:30.281039 11674 net.cpp:409] pool2/3x3_s2_pool2/3x3_s2_0_split -> pool2/3x3_s2_pool2/3x3_s2_0_split_2
I1111 04:53:30.281046 11674 net.cpp:409] pool2/3x3_s2_pool2/3x3_s2_0_split -> pool2/3x3_s2_pool2/3x3_s2_0_split_3
I1111 04:53:30.281051 11674 net.cpp:131] Setting up pool2/3x3_s2_pool2/3x3_s2_0_split
I1111 04:53:30.281059 11674 net.cpp:140] Top shape: 48 192 28 28 (7225344)
I1111 04:53:30.281064 11674 net.cpp:140] Top shape: 48 192 28 28 (7225344)
I1111 04:53:30.281067 11674 net.cpp:140] Top shape: 48 192 28 28 (7225344)
I1111 04:53:30.281070 11674 net.cpp:140] Top shape: 48 192 28 28 (7225344)
I1111 04:53:30.281075 11674 layer_factory.hpp:75] Creating layer inception_3a/1x1
I1111 04:53:30.281083 11674 net.cpp:99] Creating Layer inception_3a/1x1
I1111 04:53:30.281087 11674 net.cpp:453] inception_3a/1x1 <- pool2/3x3_s2_pool2/3x3_s2_0_split_0
I1111 04:53:30.281093 11674 net.cpp:409] inception_3a/1x1 -> inception_3a/1x1
I1111 04:53:30.281100 11674 net.cpp:131] Setting up inception_3a/1x1
I1111 04:53:30.282553 11674 net.cpp:140] Top shape: 48 64 28 28 (2408448)
I1111 04:53:30.282567 11674 layer_factory.hpp:75] Creating layer inception_3a/relu_1x1
I1111 04:53:30.282574 11674 net.cpp:99] Creating Layer inception_3a/relu_1x1
I1111 04:53:30.282578 11674 net.cpp:453] inception_3a/relu_1x1 <- inception_3a/1x1
I1111 04:53:30.282584 11674 net.cpp:396] inception_3a/relu_1x1 -> inception_3a/1x1 (in-place)
I1111 04:53:30.282590 11674 net.cpp:131] Setting up inception_3a/relu_1x1
I1111 04:53:30.282918 11674 net.cpp:140] Top shape: 48 64 28 28 (2408448)
I1111 04:53:30.282927 11674 layer_factory.hpp:75] Creating layer inception_3a/3x3_reduce
I1111 04:53:30.282935 11674 net.cpp:99] Creating Layer inception_3a/3x3_reduce
I1111 04:53:30.282940 11674 net.cpp:453] inception_3a/3x3_reduce <- pool2/3x3_s2_pool2/3x3_s2_0_split_1
I1111 04:53:30.282948 11674 net.cpp:409] inception_3a/3x3_reduce -> inception_3a/3x3_reduce
I1111 04:53:30.282955 11674 net.cpp:131] Setting up inception_3a/3x3_reduce
I1111 04:53:30.284451 11674 net.cpp:140] Top shape: 48 96 28 28 (3612672)
I1111 04:53:30.284466 11674 layer_factory.hpp:75] Creating layer inception_3a/relu_3x3_reduce
I1111 04:53:30.284474 11674 net.cpp:99] Creating Layer inception_3a/relu_3x3_reduce
I1111 04:53:30.284478 11674 net.cpp:453] inception_3a/relu_3x3_reduce <- inception_3a/3x3_reduce
I1111 04:53:30.284484 11674 net.cpp:396] inception_3a/relu_3x3_reduce -> inception_3a/3x3_reduce (in-place)
I1111 04:53:30.284492 11674 net.cpp:131] Setting up inception_3a/relu_3x3_reduce
I1111 04:53:30.284554 11674 net.cpp:140] Top shape: 48 96 28 28 (3612672)
I1111 04:53:30.284559 11674 layer_factory.hpp:75] Creating layer inception_3a/3x3
I1111 04:53:30.284567 11674 net.cpp:99] Creating Layer inception_3a/3x3
I1111 04:53:30.284571 11674 net.cpp:453] inception_3a/3x3 <- inception_3a/3x3_reduce
I1111 04:53:30.284577 11674 net.cpp:409] inception_3a/3x3 -> inception_3a/3x3
I1111 04:53:30.284584 11674 net.cpp:131] Setting up inception_3a/3x3
I1111 04:53:30.285951 11674 net.cpp:140] Top shape: 48 128 28 28 (4816896)
I1111 04:53:30.285964 11674 layer_factory.hpp:75] Creating layer inception_3a/relu_3x3
I1111 04:53:30.285971 11674 net.cpp:99] Creating Layer inception_3a/relu_3x3
I1111 04:53:30.285976 11674 net.cpp:453] inception_3a/relu_3x3 <- inception_3a/3x3
I1111 04:53:30.285982 11674 net.cpp:396] inception_3a/relu_3x3 -> inception_3a/3x3 (in-place)
I1111 04:53:30.285989 11674 net.cpp:131] Setting up inception_3a/relu_3x3
I1111 04:53:30.286053 11674 net.cpp:140] Top shape: 48 128 28 28 (4816896)
I1111 04:53:30.286058 11674 layer_factory.hpp:75] Creating layer inception_3a/5x5_reduce
I1111 04:53:30.286069 11674 net.cpp:99] Creating Layer inception_3a/5x5_reduce
I1111 04:53:30.286087 11674 net.cpp:453] inception_3a/5x5_reduce <- pool2/3x3_s2_pool2/3x3_s2_0_split_2
I1111 04:53:30.286093 11674 net.cpp:409] inception_3a/5x5_reduce -> inception_3a/5x5_reduce
I1111 04:53:30.286101 11674 net.cpp:131] Setting up inception_3a/5x5_reduce
I1111 04:53:30.286633 11674 net.cpp:140] Top shape: 48 16 28 28 (602112)
I1111 04:53:30.286644 11674 layer_factory.hpp:75] Creating layer inception_3a/relu_5x5_reduce
I1111 04:53:30.286651 11674 net.cpp:99] Creating Layer inception_3a/relu_5x5_reduce
I1111 04:53:30.286656 11674 net.cpp:453] inception_3a/relu_5x5_reduce <- inception_3a/5x5_reduce
I1111 04:53:30.286662 11674 net.cpp:396] inception_3a/relu_5x5_reduce -> inception_3a/5x5_reduce (in-place)
I1111 04:53:30.286669 11674 net.cpp:131] Setting up inception_3a/relu_5x5_reduce
I1111 04:53:30.286728 11674 net.cpp:140] Top shape: 48 16 28 28 (602112)
I1111 04:53:30.286733 11674 layer_factory.hpp:75] Creating layer inception_3a/5x5
I1111 04:53:30.286741 11674 net.cpp:99] Creating Layer inception_3a/5x5
I1111 04:53:30.286746 11674 net.cpp:453] inception_3a/5x5 <- inception_3a/5x5_reduce
I1111 04:53:30.286751 11674 net.cpp:409] inception_3a/5x5 -> inception_3a/5x5
I1111 04:53:30.286762 11674 net.cpp:131] Setting up inception_3a/5x5
I1111 04:53:30.287361 11674 net.cpp:140] Top shape: 48 32 28 28 (1204224)
I1111 04:53:30.287374 11674 layer_factory.hpp:75] Creating layer inception_3a/relu_5x5
I1111 04:53:30.287380 11674 net.cpp:99] Creating Layer inception_3a/relu_5x5
I1111 04:53:30.287384 11674 net.cpp:453] inception_3a/relu_5x5 <- inception_3a/5x5
I1111 04:53:30.287390 11674 net.cpp:396] inception_3a/relu_5x5 -> inception_3a/5x5 (in-place)
I1111 04:53:30.287396 11674 net.cpp:131] Setting up inception_3a/relu_5x5
I1111 04:53:30.287714 11674 net.cpp:140] Top shape: 48 32 28 28 (1204224)
I1111 04:53:30.287724 11674 layer_factory.hpp:75] Creating layer inception_3a/pool
I1111 04:53:30.287729 11674 layer_factory.cpp:55] CUDNN does not support padding or multiple tops. Using Caffe's own pooling layer.
I1111 04:53:30.287734 11674 net.cpp:99] Creating Layer inception_3a/pool
I1111 04:53:30.287739 11674 net.cpp:453] inception_3a/pool <- pool2/3x3_s2_pool2/3x3_s2_0_split_3
I1111 04:53:30.287744 11674 net.cpp:409] inception_3a/pool -> inception_3a/pool
I1111 04:53:30.287751 11674 net.cpp:131] Setting up inception_3a/pool
I1111 04:53:30.287760 11674 net.cpp:140] Top shape: 48 192 28 28 (7225344)
I1111 04:53:30.287763 11674 layer_factory.hpp:75] Creating layer inception_3a/pool_proj
I1111 04:53:30.287771 11674 net.cpp:99] Creating Layer inception_3a/pool_proj
I1111 04:53:30.287775 11674 net.cpp:453] inception_3a/pool_proj <- inception_3a/pool
I1111 04:53:30.287781 11674 net.cpp:409] inception_3a/pool_proj -> inception_3a/pool_proj
I1111 04:53:30.287788 11674 net.cpp:131] Setting up inception_3a/pool_proj
I1111 04:53:30.288334 11674 net.cpp:140] Top shape: 48 32 28 28 (1204224)
I1111 04:53:30.288349 11674 layer_factory.hpp:75] Creating layer inception_3a/relu_pool_proj
I1111 04:53:30.288359 11674 net.cpp:99] Creating Layer inception_3a/relu_pool_proj
I1111 04:53:30.288364 11674 net.cpp:453] inception_3a/relu_pool_proj <- inception_3a/pool_proj
I1111 04:53:30.288369 11674 net.cpp:396] inception_3a/relu_pool_proj -> inception_3a/pool_proj (in-place)
I1111 04:53:30.288377 11674 net.cpp:131] Setting up inception_3a/relu_pool_proj
I1111 04:53:30.288437 11674 net.cpp:140] Top shape: 48 32 28 28 (1204224)
I1111 04:53:30.288442 11674 layer_factory.hpp:75] Creating layer inception_3a/output
I1111 04:53:30.288455 11674 net.cpp:99] Creating Layer inception_3a/output
I1111 04:53:30.288458 11674 net.cpp:453] inception_3a/output <- inception_3a/1x1
I1111 04:53:30.288463 11674 net.cpp:453] inception_3a/output <- inception_3a/3x3
I1111 04:53:30.288467 11674 net.cpp:453] inception_3a/output <- inception_3a/5x5
I1111 04:53:30.288471 11674 net.cpp:453] inception_3a/output <- inception_3a/pool_proj
I1111 04:53:30.288478 11674 net.cpp:409] inception_3a/output -> inception_3a/output
I1111 04:53:30.288486 11674 net.cpp:131] Setting up inception_3a/output
I1111 04:53:30.288507 11674 net.cpp:140] Top shape: 48 256 28 28 (9633792)
I1111 04:53:30.288511 11674 layer_factory.hpp:75] Creating layer inception_3a/output_inception_3a/output_0_split
I1111 04:53:30.288518 11674 net.cpp:99] Creating Layer inception_3a/output_inception_3a/output_0_split
I1111 04:53:30.288522 11674 net.cpp:453] inception_3a/output_inception_3a/output_0_split <- inception_3a/output
I1111 04:53:30.288527 11674 net.cpp:409] inception_3a/output_inception_3a/output_0_split -> inception_3a/output_inception_3a/output_0_split_0
I1111 04:53:30.288534 11674 net.cpp:409] inception_3a/output_inception_3a/output_0_split -> inception_3a/output_inception_3a/output_0_split_1
I1111 04:53:30.288542 11674 net.cpp:409] inception_3a/output_inception_3a/output_0_split -> inception_3a/output_inception_3a/output_0_split_2
I1111 04:53:30.288547 11674 net.cpp:409] inception_3a/output_inception_3a/output_0_split -> inception_3a/output_inception_3a/output_0_split_3
I1111 04:53:30.288553 11674 net.cpp:131] Setting up inception_3a/output_inception_3a/output_0_split
I1111 04:53:30.288559 11674 net.cpp:140] Top shape: 48 256 28 28 (9633792)
I1111 04:53:30.288564 11674 net.cpp:140] Top shape: 48 256 28 28 (9633792)
I1111 04:53:30.288568 11674 net.cpp:140] Top shape: 48 256 28 28 (9633792)
I1111 04:53:30.288571 11674 net.cpp:140] Top shape: 48 256 28 28 (9633792)
I1111 04:53:30.288575 11674 layer_factory.hpp:75] Creating layer inception_3b/1x1
I1111 04:53:30.288583 11674 net.cpp:99] Creating Layer inception_3b/1x1
I1111 04:53:30.288586 11674 net.cpp:453] inception_3b/1x1 <- inception_3a/output_inception_3a/output_0_split_0
I1111 04:53:30.288592 11674 net.cpp:409] inception_3b/1x1 -> inception_3b/1x1
I1111 04:53:30.288599 11674 net.cpp:131] Setting up inception_3b/1x1
I1111 04:53:30.289347 11674 net.cpp:140] Top shape: 48 128 28 28 (4816896)
I1111 04:53:30.289360 11674 layer_factory.hpp:75] Creating layer inception_3b/relu_1x1
I1111 04:53:30.289367 11674 net.cpp:99] Creating Layer inception_3b/relu_1x1
I1111 04:53:30.289372 11674 net.cpp:453] inception_3b/relu_1x1 <- inception_3b/1x1
I1111 04:53:30.289377 11674 net.cpp:396] inception_3b/relu_1x1 -> inception_3b/1x1 (in-place)
I1111 04:53:30.289383 11674 net.cpp:131] Setting up inception_3b/relu_1x1
I1111 04:53:30.289444 11674 net.cpp:140] Top shape: 48 128 28 28 (4816896)
I1111 04:53:30.289449 11674 layer_factory.hpp:75] Creating layer inception_3b/3x3_reduce
I1111 04:53:30.289458 11674 net.cpp:99] Creating Layer inception_3b/3x3_reduce
I1111 04:53:30.289463 11674 net.cpp:453] inception_3b/3x3_reduce <- inception_3a/output_inception_3a/output_0_split_1
I1111 04:53:30.289469 11674 net.cpp:409] inception_3b/3x3_reduce -> inception_3b/3x3_reduce
I1111 04:53:30.289475 11674 net.cpp:131] Setting up inception_3b/3x3_reduce
I1111 04:53:30.290207 11674 net.cpp:140] Top shape: 48 128 28 28 (4816896)
I1111 04:53:30.290220 11674 layer_factory.hpp:75] Creating layer inception_3b/relu_3x3_reduce
I1111 04:53:30.290226 11674 net.cpp:99] Creating Layer inception_3b/relu_3x3_reduce
I1111 04:53:30.290231 11674 net.cpp:453] inception_3b/relu_3x3_reduce <- inception_3b/3x3_reduce
I1111 04:53:30.290237 11674 net.cpp:396] inception_3b/relu_3x3_reduce -> inception_3b/3x3_reduce (in-place)
I1111 04:53:30.290243 11674 net.cpp:131] Setting up inception_3b/relu_3x3_reduce
I1111 04:53:30.290571 11674 net.cpp:140] Top shape: 48 128 28 28 (4816896)
I1111 04:53:30.290580 11674 layer_factory.hpp:75] Creating layer inception_3b/3x3
I1111 04:53:30.290590 11674 net.cpp:99] Creating Layer inception_3b/3x3
I1111 04:53:30.290594 11674 net.cpp:453] inception_3b/3x3 <- inception_3b/3x3_reduce
I1111 04:53:30.290601 11674 net.cpp:409] inception_3b/3x3 -> inception_3b/3x3
I1111 04:53:30.290607 11674 net.cpp:131] Setting up inception_3b/3x3
I1111 04:53:30.293556 11674 net.cpp:140] Top shape: 48 192 28 28 (7225344)
I1111 04:53:30.293571 11674 layer_factory.hpp:75] Creating layer inception_3b/relu_3x3
I1111 04:53:30.293579 11674 net.cpp:99] Creating Layer inception_3b/relu_3x3
I1111 04:53:30.293583 11674 net.cpp:453] inception_3b/relu_3x3 <- inception_3b/3x3
I1111 04:53:30.293602 11674 net.cpp:396] inception_3b/relu_3x3 -> inception_3b/3x3 (in-place)
I1111 04:53:30.293609 11674 net.cpp:131] Setting up inception_3b/relu_3x3
I1111 04:53:30.293673 11674 net.cpp:140] Top shape: 48 192 28 28 (7225344)
I1111 04:53:30.293679 11674 layer_factory.hpp:75] Creating layer inception_3b/5x5_reduce
I1111 04:53:30.293689 11674 net.cpp:99] Creating Layer inception_3b/5x5_reduce
I1111 04:53:30.293692 11674 net.cpp:453] inception_3b/5x5_reduce <- inception_3a/output_inception_3a/output_0_split_2
I1111 04:53:30.293699 11674 net.cpp:409] inception_3b/5x5_reduce -> inception_3b/5x5_reduce
I1111 04:53:30.293705 11674 net.cpp:131] Setting up inception_3b/5x5_reduce
I1111 04:53:30.294287 11674 net.cpp:140] Top shape: 48 32 28 28 (1204224)
I1111 04:53:30.294298 11674 layer_factory.hpp:75] Creating layer inception_3b/relu_5x5_reduce
I1111 04:53:30.294306 11674 net.cpp:99] Creating Layer inception_3b/relu_5x5_reduce
I1111 04:53:30.294311 11674 net.cpp:453] inception_3b/relu_5x5_reduce <- inception_3b/5x5_reduce
I1111 04:53:30.294317 11674 net.cpp:396] inception_3b/relu_5x5_reduce -> inception_3b/5x5_reduce (in-place)
I1111 04:53:30.294322 11674 net.cpp:131] Setting up inception_3b/relu_5x5_reduce
I1111 04:53:30.294383 11674 net.cpp:140] Top shape: 48 32 28 28 (1204224)
I1111 04:53:30.294387 11674 layer_factory.hpp:75] Creating layer inception_3b/5x5
I1111 04:53:30.294396 11674 net.cpp:99] Creating Layer inception_3b/5x5
I1111 04:53:30.294399 11674 net.cpp:453] inception_3b/5x5 <- inception_3b/5x5_reduce
I1111 04:53:30.294406 11674 net.cpp:409] inception_3b/5x5 -> inception_3b/5x5
I1111 04:53:30.294414 11674 net.cpp:131] Setting up inception_3b/5x5
I1111 04:53:30.295536 11674 net.cpp:140] Top shape: 48 96 28 28 (3612672)
I1111 04:53:30.295548 11674 layer_factory.hpp:75] Creating layer inception_3b/relu_5x5
I1111 04:53:30.295557 11674 net.cpp:99] Creating Layer inception_3b/relu_5x5
I1111 04:53:30.295560 11674 net.cpp:453] inception_3b/relu_5x5 <- inception_3b/5x5
I1111 04:53:30.295567 11674 net.cpp:396] inception_3b/relu_5x5 -> inception_3b/5x5 (in-place)
I1111 04:53:30.295572 11674 net.cpp:131] Setting up inception_3b/relu_5x5
I1111 04:53:30.295634 11674 net.cpp:140] Top shape: 48 96 28 28 (3612672)
I1111 04:53:30.295639 11674 layer_factory.hpp:75] Creating layer inception_3b/pool
I1111 04:53:30.295644 11674 layer_factory.cpp:55] CUDNN does not support padding or multiple tops. Using Caffe's own pooling layer.
I1111 04:53:30.295650 11674 net.cpp:99] Creating Layer inception_3b/pool
I1111 04:53:30.295653 11674 net.cpp:453] inception_3b/pool <- inception_3a/output_inception_3a/output_0_split_3
I1111 04:53:30.295660 11674 net.cpp:409] inception_3b/pool -> inception_3b/pool
I1111 04:53:30.295665 11674 net.cpp:131] Setting up inception_3b/pool
I1111 04:53:30.295673 11674 net.cpp:140] Top shape: 48 256 28 28 (9633792)
I1111 04:53:30.295676 11674 layer_factory.hpp:75] Creating layer inception_3b/pool_proj
I1111 04:53:30.295686 11674 net.cpp:99] Creating Layer inception_3b/pool_proj
I1111 04:53:30.295689 11674 net.cpp:453] inception_3b/pool_proj <- inception_3b/pool
I1111 04:53:30.295696 11674 net.cpp:409] inception_3b/pool_proj -> inception_3b/pool_proj
I1111 04:53:30.295702 11674 net.cpp:131] Setting up inception_3b/pool_proj
I1111 04:53:30.296339 11674 net.cpp:140] Top shape: 48 64 28 28 (2408448)
I1111 04:53:30.296350 11674 layer_factory.hpp:75] Creating layer inception_3b/relu_pool_proj
I1111 04:53:30.296357 11674 net.cpp:99] Creating Layer inception_3b/relu_pool_proj
I1111 04:53:30.296362 11674 net.cpp:453] inception_3b/relu_pool_proj <- inception_3b/pool_proj
I1111 04:53:30.296368 11674 net.cpp:396] inception_3b/relu_pool_proj -> inception_3b/pool_proj (in-place)
I1111 04:53:30.296375 11674 net.cpp:131] Setting up inception_3b/relu_pool_proj
I1111 04:53:30.296701 11674 net.cpp:140] Top shape: 48 64 28 28 (2408448)
I1111 04:53:30.296710 11674 layer_factory.hpp:75] Creating layer inception_3b/output
I1111 04:53:30.296717 11674 net.cpp:99] Creating Layer inception_3b/output
I1111 04:53:30.296735 11674 net.cpp:453] inception_3b/output <- inception_3b/1x1
I1111 04:53:30.296741 11674 net.cpp:453] inception_3b/output <- inception_3b/3x3
I1111 04:53:30.296746 11674 net.cpp:453] inception_3b/output <- inception_3b/5x5
I1111 04:53:30.296749 11674 net.cpp:453] inception_3b/output <- inception_3b/pool_proj
I1111 04:53:30.296754 11674 net.cpp:409] inception_3b/output -> inception_3b/output
I1111 04:53:30.296761 11674 net.cpp:131] Setting up inception_3b/output
I1111 04:53:30.296768 11674 net.cpp:140] Top shape: 48 480 28 28 (18063360)
I1111 04:53:30.296772 11674 layer_factory.hpp:75] Creating layer pool3/3x3_s2
I1111 04:53:30.296779 11674 net.cpp:99] Creating Layer pool3/3x3_s2
I1111 04:53:30.296783 11674 net.cpp:453] pool3/3x3_s2 <- inception_3b/output
I1111 04:53:30.296788 11674 net.cpp:409] pool3/3x3_s2 -> pool3/3x3_s2
I1111 04:53:30.296794 11674 net.cpp:131] Setting up pool3/3x3_s2
I1111 04:53:30.296860 11674 net.cpp:140] Top shape: 48 480 14 14 (4515840)
I1111 04:53:30.296865 11674 layer_factory.hpp:75] Creating layer pool3/3x3_s2_pool3/3x3_s2_0_split
I1111 04:53:30.296872 11674 net.cpp:99] Creating Layer pool3/3x3_s2_pool3/3x3_s2_0_split
I1111 04:53:30.296875 11674 net.cpp:453] pool3/3x3_s2_pool3/3x3_s2_0_split <- pool3/3x3_s2
I1111 04:53:30.296881 11674 net.cpp:409] pool3/3x3_s2_pool3/3x3_s2_0_split -> pool3/3x3_s2_pool3/3x3_s2_0_split_0
I1111 04:53:30.296888 11674 net.cpp:409] pool3/3x3_s2_pool3/3x3_s2_0_split -> pool3/3x3_s2_pool3/3x3_s2_0_split_1
I1111 04:53:30.296895 11674 net.cpp:409] pool3/3x3_s2_pool3/3x3_s2_0_split -> pool3/3x3_s2_pool3/3x3_s2_0_split_2
I1111 04:53:30.296900 11674 net.cpp:409] pool3/3x3_s2_pool3/3x3_s2_0_split -> pool3/3x3_s2_pool3/3x3_s2_0_split_3
I1111 04:53:30.296905 11674 net.cpp:131] Setting up pool3/3x3_s2_pool3/3x3_s2_0_split
I1111 04:53:30.296912 11674 net.cpp:140] Top shape: 48 480 14 14 (4515840)
I1111 04:53:30.296916 11674 net.cpp:140] Top shape: 48 480 14 14 (4515840)
I1111 04:53:30.296921 11674 net.cpp:140] Top shape: 48 480 14 14 (4515840)
I1111 04:53:30.296924 11674 net.cpp:140] Top shape: 48 480 14 14 (4515840)
I1111 04:53:30.296927 11674 layer_factory.hpp:75] Creating layer inception_4a/1x1
I1111 04:53:30.296936 11674 net.cpp:99] Creating Layer inception_4a/1x1
I1111 04:53:30.296939 11674 net.cpp:453] inception_4a/1x1 <- pool3/3x3_s2_pool3/3x3_s2_0_split_0
I1111 04:53:30.296946 11674 net.cpp:409] inception_4a/1x1 -> inception_4a/1x1
I1111 04:53:30.296952 11674 net.cpp:131] Setting up inception_4a/1x1
I1111 04:53:30.299010 11674 net.cpp:140] Top shape: 48 192 14 14 (1806336)
I1111 04:53:30.299022 11674 layer_factory.hpp:75] Creating layer inception_4a/relu_1x1
I1111 04:53:30.299031 11674 net.cpp:99] Creating Layer inception_4a/relu_1x1
I1111 04:53:30.299034 11674 net.cpp:453] inception_4a/relu_1x1 <- inception_4a/1x1
I1111 04:53:30.299041 11674 net.cpp:396] inception_4a/relu_1x1 -> inception_4a/1x1 (in-place)
I1111 04:53:30.299046 11674 net.cpp:131] Setting up inception_4a/relu_1x1
I1111 04:53:30.299109 11674 net.cpp:140] Top shape: 48 192 14 14 (1806336)
I1111 04:53:30.299114 11674 layer_factory.hpp:75] Creating layer inception_4a/3x3_reduce
I1111 04:53:30.299124 11674 net.cpp:99] Creating Layer inception_4a/3x3_reduce
I1111 04:53:30.299127 11674 net.cpp:453] inception_4a/3x3_reduce <- pool3/3x3_s2_pool3/3x3_s2_0_split_1
I1111 04:53:30.299134 11674 net.cpp:409] inception_4a/3x3_reduce -> inception_4a/3x3_reduce
I1111 04:53:30.299141 11674 net.cpp:131] Setting up inception_4a/3x3_reduce
I1111 04:53:30.299993 11674 net.cpp:140] Top shape: 48 96 14 14 (903168)
I1111 04:53:30.300009 11674 layer_factory.hpp:75] Creating layer inception_4a/relu_3x3_reduce
I1111 04:53:30.300016 11674 net.cpp:99] Creating Layer inception_4a/relu_3x3_reduce
I1111 04:53:30.300020 11674 net.cpp:453] inception_4a/relu_3x3_reduce <- inception_4a/3x3_reduce
I1111 04:53:30.300026 11674 net.cpp:396] inception_4a/relu_3x3_reduce -> inception_4a/3x3_reduce (in-place)
I1111 04:53:30.300032 11674 net.cpp:131] Setting up inception_4a/relu_3x3_reduce
I1111 04:53:30.300094 11674 net.cpp:140] Top shape: 48 96 14 14 (903168)
I1111 04:53:30.300113 11674 layer_factory.hpp:75] Creating layer inception_4a/3x3
I1111 04:53:30.300123 11674 net.cpp:99] Creating Layer inception_4a/3x3
I1111 04:53:30.300127 11674 net.cpp:453] inception_4a/3x3 <- inception_4a/3x3_reduce
I1111 04:53:30.300133 11674 net.cpp:409] inception_4a/3x3 -> inception_4a/3x3
I1111 04:53:30.300140 11674 net.cpp:131] Setting up inception_4a/3x3
I1111 04:53:30.302815 11674 net.cpp:140] Top shape: 48 208 14 14 (1956864)
I1111 04:53:30.302829 11674 layer_factory.hpp:75] Creating layer inception_4a/relu_3x3
I1111 04:53:30.302837 11674 net.cpp:99] Creating Layer inception_4a/relu_3x3
I1111 04:53:30.302841 11674 net.cpp:453] inception_4a/relu_3x3 <- inception_4a/3x3
I1111 04:53:30.302847 11674 net.cpp:396] inception_4a/relu_3x3 -> inception_4a/3x3 (in-place)
I1111 04:53:30.302853 11674 net.cpp:131] Setting up inception_4a/relu_3x3
I1111 04:53:30.303182 11674 net.cpp:140] Top shape: 48 208 14 14 (1956864)
I1111 04:53:30.303190 11674 layer_factory.hpp:75] Creating layer inception_4a/5x5_reduce
I1111 04:53:30.303200 11674 net.cpp:99] Creating Layer inception_4a/5x5_reduce
I1111 04:53:30.303205 11674 net.cpp:453] inception_4a/5x5_reduce <- pool3/3x3_s2_pool3/3x3_s2_0_split_2
I1111 04:53:30.303211 11674 net.cpp:409] inception_4a/5x5_reduce -> inception_4a/5x5_reduce
I1111 04:53:30.303220 11674 net.cpp:131] Setting up inception_4a/5x5_reduce
I1111 04:53:30.303794 11674 net.cpp:140] Top shape: 48 16 14 14 (150528)
I1111 04:53:30.303807 11674 layer_factory.hpp:75] Creating layer inception_4a/relu_5x5_reduce
I1111 04:53:30.303813 11674 net.cpp:99] Creating Layer inception_4a/relu_5x5_reduce
I1111 04:53:30.303817 11674 net.cpp:453] inception_4a/relu_5x5_reduce <- inception_4a/5x5_reduce
I1111 04:53:30.303823 11674 net.cpp:396] inception_4a/relu_5x5_reduce -> inception_4a/5x5_reduce (in-place)
I1111 04:53:30.303829 11674 net.cpp:131] Setting up inception_4a/relu_5x5_reduce
I1111 04:53:30.303890 11674 net.cpp:140] Top shape: 48 16 14 14 (150528)
I1111 04:53:30.303895 11674 layer_factory.hpp:75] Creating layer inception_4a/5x5
I1111 04:53:30.303903 11674 net.cpp:99] Creating Layer inception_4a/5x5
I1111 04:53:30.303907 11674 net.cpp:453] inception_4a/5x5 <- inception_4a/5x5_reduce
I1111 04:53:30.303913 11674 net.cpp:409] inception_4a/5x5 -> inception_4a/5x5
I1111 04:53:30.303921 11674 net.cpp:131] Setting up inception_4a/5x5
I1111 04:53:30.304575 11674 net.cpp:140] Top shape: 48 48 14 14 (451584)
I1111 04:53:30.304587 11674 layer_factory.hpp:75] Creating layer inception_4a/relu_5x5
I1111 04:53:30.304594 11674 net.cpp:99] Creating Layer inception_4a/relu_5x5
I1111 04:53:30.304600 11674 net.cpp:453] inception_4a/relu_5x5 <- inception_4a/5x5
I1111 04:53:30.304605 11674 net.cpp:396] inception_4a/relu_5x5 -> inception_4a/5x5 (in-place)
I1111 04:53:30.304610 11674 net.cpp:131] Setting up inception_4a/relu_5x5
I1111 04:53:30.304672 11674 net.cpp:140] Top shape: 48 48 14 14 (451584)
I1111 04:53:30.304677 11674 layer_factory.hpp:75] Creating layer inception_4a/pool
I1111 04:53:30.304682 11674 layer_factory.cpp:55] CUDNN does not support padding or multiple tops. Using Caffe's own pooling layer.
I1111 04:53:30.304685 11674 net.cpp:99] Creating Layer inception_4a/pool
I1111 04:53:30.304689 11674 net.cpp:453] inception_4a/pool <- pool3/3x3_s2_pool3/3x3_s2_0_split_3
I1111 04:53:30.304695 11674 net.cpp:409] inception_4a/pool -> inception_4a/pool
I1111 04:53:30.304702 11674 net.cpp:131] Setting up inception_4a/pool
I1111 04:53:30.304708 11674 net.cpp:140] Top shape: 48 480 14 14 (4515840)
I1111 04:53:30.304711 11674 layer_factory.hpp:75] Creating layer inception_4a/pool_proj
I1111 04:53:30.304720 11674 net.cpp:99] Creating Layer inception_4a/pool_proj
I1111 04:53:30.304723 11674 net.cpp:453] inception_4a/pool_proj <- inception_4a/pool
I1111 04:53:30.304730 11674 net.cpp:409] inception_4a/pool_proj -> inception_4a/pool_proj
I1111 04:53:30.304736 11674 net.cpp:131] Setting up inception_4a/pool_proj
I1111 04:53:30.305472 11674 net.cpp:140] Top shape: 48 64 14 14 (602112)
I1111 04:53:30.305498 11674 layer_factory.hpp:75] Creating layer inception_4a/relu_pool_proj
I1111 04:53:30.305506 11674 net.cpp:99] Creating Layer inception_4a/relu_pool_proj
I1111 04:53:30.305510 11674 net.cpp:453] inception_4a/relu_pool_proj <- inception_4a/pool_proj
I1111 04:53:30.305516 11674 net.cpp:396] inception_4a/relu_pool_proj -> inception_4a/pool_proj (in-place)
I1111 04:53:30.305522 11674 net.cpp:131] Setting up inception_4a/relu_pool_proj
I1111 04:53:30.305585 11674 net.cpp:140] Top shape: 48 64 14 14 (602112)
I1111 04:53:30.305590 11674 layer_factory.hpp:75] Creating layer inception_4a/output
I1111 04:53:30.305603 11674 net.cpp:99] Creating Layer inception_4a/output
I1111 04:53:30.305606 11674 net.cpp:453] inception_4a/output <- inception_4a/1x1
I1111 04:53:30.305611 11674 net.cpp:453] inception_4a/output <- inception_4a/3x3
I1111 04:53:30.305615 11674 net.cpp:453] inception_4a/output <- inception_4a/5x5
I1111 04:53:30.305620 11674 net.cpp:453] inception_4a/output <- inception_4a/pool_proj
I1111 04:53:30.305625 11674 net.cpp:409] inception_4a/output -> inception_4a/output
I1111 04:53:30.305631 11674 net.cpp:131] Setting up inception_4a/output
I1111 04:53:30.305637 11674 net.cpp:140] Top shape: 48 512 14 14 (4816896)
I1111 04:53:30.305642 11674 layer_factory.hpp:75] Creating layer inception_4a/output_inception_4a/output_0_split
I1111 04:53:30.305649 11674 net.cpp:99] Creating Layer inception_4a/output_inception_4a/output_0_split
I1111 04:53:30.305652 11674 net.cpp:453] inception_4a/output_inception_4a/output_0_split <- inception_4a/output
I1111 04:53:30.305658 11674 net.cpp:409] inception_4a/output_inception_4a/output_0_split -> inception_4a/output_inception_4a/output_0_split_0
I1111 04:53:30.305665 11674 net.cpp:409] inception_4a/output_inception_4a/output_0_split -> inception_4a/output_inception_4a/output_0_split_1
I1111 04:53:30.305671 11674 net.cpp:409] inception_4a/output_inception_4a/output_0_split -> inception_4a/output_inception_4a/output_0_split_2
I1111 04:53:30.305677 11674 net.cpp:409] inception_4a/output_inception_4a/output_0_split -> inception_4a/output_inception_4a/output_0_split_3
I1111 04:53:30.305688 11674 net.cpp:409] inception_4a/output_inception_4a/output_0_split -> inception_4a/output_inception_4a/output_0_split_4
I1111 04:53:30.305694 11674 net.cpp:131] Setting up inception_4a/output_inception_4a/output_0_split
I1111 04:53:30.305701 11674 net.cpp:140] Top shape: 48 512 14 14 (4816896)
I1111 04:53:30.305706 11674 net.cpp:140] Top shape: 48 512 14 14 (4816896)
I1111 04:53:30.305709 11674 net.cpp:140] Top shape: 48 512 14 14 (4816896)
I1111 04:53:30.305714 11674 net.cpp:140] Top shape: 48 512 14 14 (4816896)
I1111 04:53:30.305718 11674 net.cpp:140] Top shape: 48 512 14 14 (4816896)
I1111 04:53:30.305721 11674 layer_factory.hpp:75] Creating layer loss1/ave_pool
I1111 04:53:30.305727 11674 net.cpp:99] Creating Layer loss1/ave_pool
I1111 04:53:30.305732 11674 net.cpp:453] loss1/ave_pool <- inception_4a/output_inception_4a/output_0_split_0
I1111 04:53:30.305737 11674 net.cpp:409] loss1/ave_pool -> loss1/ave_pool
I1111 04:53:30.305742 11674 net.cpp:131] Setting up loss1/ave_pool
I1111 04:53:30.306074 11674 net.cpp:140] Top shape: 48 512 4 4 (393216)
I1111 04:53:30.306082 11674 layer_factory.hpp:75] Creating layer loss1/conv
I1111 04:53:30.306092 11674 net.cpp:99] Creating Layer loss1/conv
I1111 04:53:30.306095 11674 net.cpp:453] loss1/conv <- loss1/ave_pool
I1111 04:53:30.306102 11674 net.cpp:409] loss1/conv -> loss1/conv
I1111 04:53:30.306109 11674 net.cpp:131] Setting up loss1/conv
I1111 04:53:30.307116 11674 net.cpp:140] Top shape: 48 128 4 4 (98304)
I1111 04:53:30.307129 11674 layer_factory.hpp:75] Creating layer loss1/relu_conv
I1111 04:53:30.307137 11674 net.cpp:99] Creating Layer loss1/relu_conv
I1111 04:53:30.307142 11674 net.cpp:453] loss1/relu_conv <- loss1/conv
I1111 04:53:30.307148 11674 net.cpp:396] loss1/relu_conv -> loss1/conv (in-place)
I1111 04:53:30.307154 11674 net.cpp:131] Setting up loss1/relu_conv
I1111 04:53:30.307222 11674 net.cpp:140] Top shape: 48 128 4 4 (98304)
I1111 04:53:30.307240 11674 layer_factory.hpp:75] Creating layer loss1/fc
I1111 04:53:30.307250 11674 net.cpp:99] Creating Layer loss1/fc
I1111 04:53:30.307253 11674 net.cpp:453] loss1/fc <- loss1/conv
I1111 04:53:30.307260 11674 net.cpp:409] loss1/fc -> loss1/fc
I1111 04:53:30.307271 11674 net.cpp:131] Setting up loss1/fc
I1111 04:53:30.327348 11674 net.cpp:140] Top shape: 48 1024 (49152)
I1111 04:53:30.327361 11674 layer_factory.hpp:75] Creating layer loss1/relu_fc
I1111 04:53:30.327369 11674 net.cpp:99] Creating Layer loss1/relu_fc
I1111 04:53:30.327373 11674 net.cpp:453] loss1/relu_fc <- loss1/fc
I1111 04:53:30.327379 11674 net.cpp:396] loss1/relu_fc -> loss1/fc (in-place)
I1111 04:53:30.327385 11674 net.cpp:131] Setting up loss1/relu_fc
I1111 04:53:30.327464 11674 net.cpp:140] Top shape: 48 1024 (49152)
I1111 04:53:30.327469 11674 layer_factory.hpp:75] Creating layer loss1/drop_fc
I1111 04:53:30.327479 11674 net.cpp:99] Creating Layer loss1/drop_fc
I1111 04:53:30.327482 11674 net.cpp:453] loss1/drop_fc <- loss1/fc
I1111 04:53:30.327488 11674 net.cpp:396] loss1/drop_fc -> loss1/fc (in-place)
I1111 04:53:30.327497 11674 net.cpp:131] Setting up loss1/drop_fc
I1111 04:53:30.327508 11674 net.cpp:140] Top shape: 48 1024 (49152)
I1111 04:53:30.327512 11674 layer_factory.hpp:75] Creating layer loss1/classifier
I1111 04:53:30.327522 11674 net.cpp:99] Creating Layer loss1/classifier
I1111 04:53:30.327527 11674 net.cpp:453] loss1/classifier <- loss1/fc
I1111 04:53:30.327533 11674 net.cpp:409] loss1/classifier -> loss1/classifier
I1111 04:53:30.327539 11674 net.cpp:131] Setting up loss1/classifier
I1111 04:53:30.328116 11674 net.cpp:140] Top shape: 48 69 (3312)
I1111 04:53:30.328125 11674 layer_factory.hpp:75] Creating layer loss1/classifier_loss1/classifier_0_split
I1111 04:53:30.328132 11674 net.cpp:99] Creating Layer loss1/classifier_loss1/classifier_0_split
I1111 04:53:30.328136 11674 net.cpp:453] loss1/classifier_loss1/classifier_0_split <- loss1/classifier
I1111 04:53:30.328141 11674 net.cpp:409] loss1/classifier_loss1/classifier_0_split -> loss1/classifier_loss1/classifier_0_split_0
I1111 04:53:30.328148 11674 net.cpp:409] loss1/classifier_loss1/classifier_0_split -> loss1/classifier_loss1/classifier_0_split_1
I1111 04:53:30.328155 11674 net.cpp:409] loss1/classifier_loss1/classifier_0_split -> loss1/classifier_loss1/classifier_0_split_2
I1111 04:53:30.328162 11674 net.cpp:131] Setting up loss1/classifier_loss1/classifier_0_split
I1111 04:53:30.328169 11674 net.cpp:140] Top shape: 48 69 (3312)
I1111 04:53:30.328173 11674 net.cpp:140] Top shape: 48 69 (3312)
I1111 04:53:30.328176 11674 net.cpp:140] Top shape: 48 69 (3312)
I1111 04:53:30.328179 11674 layer_factory.hpp:75] Creating layer inception_4b/1x1
I1111 04:53:30.328188 11674 net.cpp:99] Creating Layer inception_4b/1x1
I1111 04:53:30.328192 11674 net.cpp:453] inception_4b/1x1 <- inception_4a/output_inception_4a/output_0_split_1
I1111 04:53:30.328200 11674 net.cpp:409] inception_4b/1x1 -> inception_4b/1x1
I1111 04:53:30.328207 11674 net.cpp:131] Setting up inception_4b/1x1
I1111 04:53:30.329365 11674 net.cpp:140] Top shape: 48 160 14 14 (1505280)
I1111 04:53:30.329377 11674 layer_factory.hpp:75] Creating layer inception_4b/relu_1x1
I1111 04:53:30.329388 11674 net.cpp:99] Creating Layer inception_4b/relu_1x1
I1111 04:53:30.329392 11674 net.cpp:453] inception_4b/relu_1x1 <- inception_4b/1x1
I1111 04:53:30.329398 11674 net.cpp:396] inception_4b/relu_1x1 -> inception_4b/1x1 (in-place)
I1111 04:53:30.329404 11674 net.cpp:131] Setting up inception_4b/relu_1x1
I1111 04:53:30.329743 11674 net.cpp:140] Top shape: 48 160 14 14 (1505280)
I1111 04:53:30.329752 11674 layer_factory.hpp:75] Creating layer inception_4b/3x3_reduce
I1111 04:53:30.329763 11674 net.cpp:99] Creating Layer inception_4b/3x3_reduce
I1111 04:53:30.329768 11674 net.cpp:453] inception_4b/3x3_reduce <- inception_4a/output_inception_4a/output_0_split_2
I1111 04:53:30.329774 11674 net.cpp:409] inception_4b/3x3_reduce -> inception_4b/3x3_reduce
I1111 04:53:30.329782 11674 net.cpp:131] Setting up inception_4b/3x3_reduce
I1111 04:53:30.331627 11674 net.cpp:140] Top shape: 48 112 14 14 (1053696)
I1111 04:53:30.331641 11674 layer_factory.hpp:75] Creating layer inception_4b/relu_3x3_reduce
I1111 04:53:30.331650 11674 net.cpp:99] Creating Layer inception_4b/relu_3x3_reduce
I1111 04:53:30.331653 11674 net.cpp:453] inception_4b/relu_3x3_reduce <- inception_4b/3x3_reduce
I1111 04:53:30.331663 11674 net.cpp:396] inception_4b/relu_3x3_reduce -> inception_4b/3x3_reduce (in-place)
I1111 04:53:30.331670 11674 net.cpp:131] Setting up inception_4b/relu_3x3_reduce
I1111 04:53:30.331748 11674 net.cpp:140] Top shape: 48 112 14 14 (1053696)
I1111 04:53:30.331753 11674 layer_factory.hpp:75] Creating layer inception_4b/3x3
I1111 04:53:30.331763 11674 net.cpp:99] Creating Layer inception_4b/3x3
I1111 04:53:30.331768 11674 net.cpp:453] inception_4b/3x3 <- inception_4b/3x3_reduce
I1111 04:53:30.331776 11674 net.cpp:409] inception_4b/3x3 -> inception_4b/3x3
I1111 04:53:30.331784 11674 net.cpp:131] Setting up inception_4b/3x3
I1111 04:53:30.334830 11674 net.cpp:140] Top shape: 48 224 14 14 (2107392)
I1111 04:53:30.334843 11674 layer_factory.hpp:75] Creating layer inception_4b/relu_3x3
I1111 04:53:30.334857 11674 net.cpp:99] Creating Layer inception_4b/relu_3x3
I1111 04:53:30.334862 11674 net.cpp:453] inception_4b/relu_3x3 <- inception_4b/3x3
I1111 04:53:30.334868 11674 net.cpp:396] inception_4b/relu_3x3 -> inception_4b/3x3 (in-place)
I1111 04:53:30.334874 11674 net.cpp:131] Setting up inception_4b/relu_3x3
I1111 04:53:30.334950 11674 net.cpp:140] Top shape: 48 224 14 14 (2107392)
I1111 04:53:30.334956 11674 layer_factory.hpp:75] Creating layer inception_4b/5x5_reduce
I1111 04:53:30.334967 11674 net.cpp:99] Creating Layer inception_4b/5x5_reduce
I1111 04:53:30.334971 11674 net.cpp:453] inception_4b/5x5_reduce <- inception_4a/output_inception_4a/output_0_split_3
I1111 04:53:30.334980 11674 net.cpp:409] inception_4b/5x5_reduce -> inception_4b/5x5_reduce
I1111 04:53:30.334987 11674 net.cpp:131] Setting up inception_4b/5x5_reduce
I1111 04:53:30.335659 11674 net.cpp:140] Top shape: 48 24 14 14 (225792)
I1111 04:53:30.335671 11674 layer_factory.hpp:75] Creating layer inception_4b/relu_5x5_reduce
I1111 04:53:30.335681 11674 net.cpp:99] Creating Layer inception_4b/relu_5x5_reduce
I1111 04:53:30.335686 11674 net.cpp:453] inception_4b/relu_5x5_reduce <- inception_4b/5x5_reduce
I1111 04:53:30.335692 11674 net.cpp:396] inception_4b/relu_5x5_reduce -> inception_4b/5x5_reduce (in-place)
I1111 04:53:30.335698 11674 net.cpp:131] Setting up inception_4b/relu_5x5_reduce
I1111 04:53:30.335773 11674 net.cpp:140] Top shape: 48 24 14 14 (225792)
I1111 04:53:30.335778 11674 layer_factory.hpp:75] Creating layer inception_4b/5x5
I1111 04:53:30.335790 11674 net.cpp:99] Creating Layer inception_4b/5x5
I1111 04:53:30.335794 11674 net.cpp:453] inception_4b/5x5 <- inception_4b/5x5_reduce
I1111 04:53:30.335803 11674 net.cpp:409] inception_4b/5x5 -> inception_4b/5x5
I1111 04:53:30.335810 11674 net.cpp:131] Setting up inception_4b/5x5
I1111 04:53:30.336648 11674 net.cpp:140] Top shape: 48 64 14 14 (602112)
I1111 04:53:30.336660 11674 layer_factory.hpp:75] Creating layer inception_4b/relu_5x5
I1111 04:53:30.336668 11674 net.cpp:99] Creating Layer inception_4b/relu_5x5
I1111 04:53:30.336673 11674 net.cpp:453] inception_4b/relu_5x5 <- inception_4b/5x5
I1111 04:53:30.336680 11674 net.cpp:396] inception_4b/relu_5x5 -> inception_4b/5x5 (in-place)
I1111 04:53:30.336688 11674 net.cpp:131] Setting up inception_4b/relu_5x5
I1111 04:53:30.337028 11674 net.cpp:140] Top shape: 48 64 14 14 (602112)
I1111 04:53:30.337036 11674 layer_factory.hpp:75] Creating layer inception_4b/pool
I1111 04:53:30.337041 11674 layer_factory.cpp:55] CUDNN does not support padding or multiple tops. Using Caffe's own pooling layer.
I1111 04:53:30.337047 11674 net.cpp:99] Creating Layer inception_4b/pool
I1111 04:53:30.337051 11674 net.cpp:453] inception_4b/pool <- inception_4a/output_inception_4a/output_0_split_4
I1111 04:53:30.337060 11674 net.cpp:409] inception_4b/pool -> inception_4b/pool
I1111 04:53:30.337069 11674 net.cpp:131] Setting up inception_4b/pool
I1111 04:53:30.337090 11674 net.cpp:140] Top shape: 48 512 14 14 (4816896)
I1111 04:53:30.337093 11674 layer_factory.hpp:75] Creating layer inception_4b/pool_proj
I1111 04:53:30.337102 11674 net.cpp:99] Creating Layer inception_4b/pool_proj
I1111 04:53:30.337107 11674 net.cpp:453] inception_4b/pool_proj <- inception_4b/pool
I1111 04:53:30.337116 11674 net.cpp:409] inception_4b/pool_proj -> inception_4b/pool_proj
I1111 04:53:30.337123 11674 net.cpp:131] Setting up inception_4b/pool_proj
I1111 04:53:30.337916 11674 net.cpp:140] Top shape: 48 64 14 14 (602112)
I1111 04:53:30.337929 11674 layer_factory.hpp:75] Creating layer inception_4b/relu_pool_proj
I1111 04:53:30.337936 11674 net.cpp:99] Creating Layer inception_4b/relu_pool_proj
I1111 04:53:30.337941 11674 net.cpp:453] inception_4b/relu_pool_proj <- inception_4b/pool_proj
I1111 04:53:30.337947 11674 net.cpp:396] inception_4b/relu_pool_proj -> inception_4b/pool_proj (in-place)
I1111 04:53:30.337954 11674 net.cpp:131] Setting up inception_4b/relu_pool_proj
I1111 04:53:30.338032 11674 net.cpp:140] Top shape: 48 64 14 14 (602112)
I1111 04:53:30.338037 11674 layer_factory.hpp:75] Creating layer inception_4b/output
I1111 04:53:30.338043 11674 net.cpp:99] Creating Layer inception_4b/output
I1111 04:53:30.338047 11674 net.cpp:453] inception_4b/output <- inception_4b/1x1
I1111 04:53:30.338053 11674 net.cpp:453] inception_4b/output <- inception_4b/3x3
I1111 04:53:30.338057 11674 net.cpp:453] inception_4b/output <- inception_4b/5x5
I1111 04:53:30.338062 11674 net.cpp:453] inception_4b/output <- inception_4b/pool_proj
I1111 04:53:30.338068 11674 net.cpp:409] inception_4b/output -> inception_4b/output
I1111 04:53:30.338075 11674 net.cpp:131] Setting up inception_4b/output
I1111 04:53:30.338083 11674 net.cpp:140] Top shape: 48 512 14 14 (4816896)
I1111 04:53:30.338085 11674 layer_factory.hpp:75] Creating layer inception_4b/output_inception_4b/output_0_split
I1111 04:53:30.338093 11674 net.cpp:99] Creating Layer inception_4b/output_inception_4b/output_0_split
I1111 04:53:30.338096 11674 net.cpp:453] inception_4b/output_inception_4b/output_0_split <- inception_4b/output
I1111 04:53:30.338101 11674 net.cpp:409] inception_4b/output_inception_4b/output_0_split -> inception_4b/output_inception_4b/output_0_split_0
I1111 04:53:30.338110 11674 net.cpp:409] inception_4b/output_inception_4b/output_0_split -> inception_4b/output_inception_4b/output_0_split_1
I1111 04:53:30.338119 11674 net.cpp:409] inception_4b/output_inception_4b/output_0_split -> inception_4b/output_inception_4b/output_0_split_2
I1111 04:53:30.338125 11674 net.cpp:409] inception_4b/output_inception_4b/output_0_split -> inception_4b/output_inception_4b/output_0_split_3
I1111 04:53:30.338130 11674 net.cpp:131] Setting up inception_4b/output_inception_4b/output_0_split
I1111 04:53:30.338136 11674 net.cpp:140] Top shape: 48 512 14 14 (4816896)
I1111 04:53:30.338140 11674 net.cpp:140] Top shape: 48 512 14 14 (4816896)
I1111 04:53:30.338145 11674 net.cpp:140] Top shape: 48 512 14 14 (4816896)
I1111 04:53:30.338147 11674 net.cpp:140] Top shape: 48 512 14 14 (4816896)
I1111 04:53:30.338151 11674 layer_factory.hpp:75] Creating layer inception_4c/1x1
I1111 04:53:30.338160 11674 net.cpp:99] Creating Layer inception_4c/1x1
I1111 04:53:30.338162 11674 net.cpp:453] inception_4c/1x1 <- inception_4b/output_inception_4b/output_0_split_0
I1111 04:53:30.338171 11674 net.cpp:409] inception_4c/1x1 -> inception_4c/1x1
I1111 04:53:30.338178 11674 net.cpp:131] Setting up inception_4c/1x1
I1111 04:53:30.339670 11674 net.cpp:140] Top shape: 48 128 14 14 (1204224)
I1111 04:53:30.339684 11674 layer_factory.hpp:75] Creating layer inception_4c/relu_1x1
I1111 04:53:30.339692 11674 net.cpp:99] Creating Layer inception_4c/relu_1x1
I1111 04:53:30.339697 11674 net.cpp:453] inception_4c/relu_1x1 <- inception_4c/1x1
I1111 04:53:30.339704 11674 net.cpp:396] inception_4c/relu_1x1 -> inception_4c/1x1 (in-place)
I1111 04:53:30.339709 11674 net.cpp:131] Setting up inception_4c/relu_1x1
I1111 04:53:30.339783 11674 net.cpp:140] Top shape: 48 128 14 14 (1204224)
I1111 04:53:30.339802 11674 layer_factory.hpp:75] Creating layer inception_4c/3x3_reduce
I1111 04:53:30.339813 11674 net.cpp:99] Creating Layer inception_4c/3x3_reduce
I1111 04:53:30.339818 11674 net.cpp:453] inception_4c/3x3_reduce <- inception_4b/output_inception_4b/output_0_split_1
I1111 04:53:30.339826 11674 net.cpp:409] inception_4c/3x3_reduce -> inception_4c/3x3_reduce
I1111 04:53:30.339834 11674 net.cpp:131] Setting up inception_4c/3x3_reduce
I1111 04:53:30.340874 11674 net.cpp:140] Top shape: 48 128 14 14 (1204224)
I1111 04:53:30.340886 11674 layer_factory.hpp:75] Creating layer inception_4c/relu_3x3_reduce
I1111 04:53:30.340894 11674 net.cpp:99] Creating Layer inception_4c/relu_3x3_reduce
I1111 04:53:30.340898 11674 net.cpp:453] inception_4c/relu_3x3_reduce <- inception_4c/3x3_reduce
I1111 04:53:30.340906 11674 net.cpp:396] inception_4c/relu_3x3_reduce -> inception_4c/3x3_reduce (in-place)
I1111 04:53:30.340914 11674 net.cpp:131] Setting up inception_4c/relu_3x3_reduce
I1111 04:53:30.340983 11674 net.cpp:140] Top shape: 48 128 14 14 (1204224)
I1111 04:53:30.340989 11674 layer_factory.hpp:75] Creating layer inception_4c/3x3
I1111 04:53:30.341001 11674 net.cpp:99] Creating Layer inception_4c/3x3
I1111 04:53:30.341004 11674 net.cpp:453] inception_4c/3x3 <- inception_4c/3x3_reduce
I1111 04:53:30.341011 11674 net.cpp:409] inception_4c/3x3 -> inception_4c/3x3
I1111 04:53:30.341017 11674 net.cpp:131] Setting up inception_4c/3x3
I1111 04:53:30.344641 11674 net.cpp:140] Top shape: 48 256 14 14 (2408448)
I1111 04:53:30.344665 11674 layer_factory.hpp:75] Creating layer inception_4c/relu_3x3
I1111 04:53:30.344673 11674 net.cpp:99] Creating Layer inception_4c/relu_3x3
I1111 04:53:30.344678 11674 net.cpp:453] inception_4c/relu_3x3 <- inception_4c/3x3
I1111 04:53:30.344684 11674 net.cpp:396] inception_4c/relu_3x3 -> inception_4c/3x3 (in-place)
I1111 04:53:30.344691 11674 net.cpp:131] Setting up inception_4c/relu_3x3
I1111 04:53:30.345139 11674 net.cpp:140] Top shape: 48 256 14 14 (2408448)
I1111 04:53:30.345149 11674 layer_factory.hpp:75] Creating layer inception_4c/5x5_reduce
I1111 04:53:30.345160 11674 net.cpp:99] Creating Layer inception_4c/5x5_reduce
I1111 04:53:30.345165 11674 net.cpp:453] inception_4c/5x5_reduce <- inception_4b/output_inception_4b/output_0_split_2
I1111 04:53:30.345172 11674 net.cpp:409] inception_4c/5x5_reduce -> inception_4c/5x5_reduce
I1111 04:53:30.345180 11674 net.cpp:131] Setting up inception_4c/5x5_reduce
I1111 04:53:30.345830 11674 net.cpp:140] Top shape: 48 24 14 14 (225792)
I1111 04:53:30.345842 11674 layer_factory.hpp:75] Creating layer inception_4c/relu_5x5_reduce
I1111 04:53:30.345852 11674 net.cpp:99] Creating Layer inception_4c/relu_5x5_reduce
I1111 04:53:30.345857 11674 net.cpp:453] inception_4c/relu_5x5_reduce <- inception_4c/5x5_reduce
I1111 04:53:30.345863 11674 net.cpp:396] inception_4c/relu_5x5_reduce -> inception_4c/5x5_reduce (in-place)
I1111 04:53:30.345870 11674 net.cpp:131] Setting up inception_4c/relu_5x5_reduce
I1111 04:53:30.345944 11674 net.cpp:140] Top shape: 48 24 14 14 (225792)
I1111 04:53:30.345950 11674 layer_factory.hpp:75] Creating layer inception_4c/5x5
I1111 04:53:30.345962 11674 net.cpp:99] Creating Layer inception_4c/5x5
I1111 04:53:30.345965 11674 net.cpp:453] inception_4c/5x5 <- inception_4c/5x5_reduce
I1111 04:53:30.345971 11674 net.cpp:409] inception_4c/5x5 -> inception_4c/5x5
I1111 04:53:30.345979 11674 net.cpp:131] Setting up inception_4c/5x5
I1111 04:53:30.347689 11674 net.cpp:140] Top shape: 48 64 14 14 (602112)
I1111 04:53:30.347703 11674 layer_factory.hpp:75] Creating layer inception_4c/relu_5x5
I1111 04:53:30.347712 11674 net.cpp:99] Creating Layer inception_4c/relu_5x5
I1111 04:53:30.347715 11674 net.cpp:453] inception_4c/relu_5x5 <- inception_4c/5x5
I1111 04:53:30.347722 11674 net.cpp:396] inception_4c/relu_5x5 -> inception_4c/5x5 (in-place)
I1111 04:53:30.347728 11674 net.cpp:131] Setting up inception_4c/relu_5x5
I1111 04:53:30.347802 11674 net.cpp:140] Top shape: 48 64 14 14 (602112)
I1111 04:53:30.347807 11674 layer_factory.hpp:75] Creating layer inception_4c/pool
I1111 04:53:30.347826 11674 layer_factory.cpp:55] CUDNN does not support padding or multiple tops. Using Caffe's own pooling layer.
I1111 04:53:30.347831 11674 net.cpp:99] Creating Layer inception_4c/pool
I1111 04:53:30.347837 11674 net.cpp:453] inception_4c/pool <- inception_4b/output_inception_4b/output_0_split_3
I1111 04:53:30.347843 11674 net.cpp:409] inception_4c/pool -> inception_4c/pool
I1111 04:53:30.347851 11674 net.cpp:131] Setting up inception_4c/pool
I1111 04:53:30.347858 11674 net.cpp:140] Top shape: 48 512 14 14 (4816896)
I1111 04:53:30.347862 11674 layer_factory.hpp:75] Creating layer inception_4c/pool_proj
I1111 04:53:30.347873 11674 net.cpp:99] Creating Layer inception_4c/pool_proj
I1111 04:53:30.347877 11674 net.cpp:453] inception_4c/pool_proj <- inception_4c/pool
I1111 04:53:30.347887 11674 net.cpp:409] inception_4c/pool_proj -> inception_4c/pool_proj
I1111 04:53:30.347893 11674 net.cpp:131] Setting up inception_4c/pool_proj
I1111 04:53:30.348695 11674 net.cpp:140] Top shape: 48 64 14 14 (602112)
I1111 04:53:30.348707 11674 layer_factory.hpp:75] Creating layer inception_4c/relu_pool_proj
I1111 04:53:30.348717 11674 net.cpp:99] Creating Layer inception_4c/relu_pool_proj
I1111 04:53:30.348722 11674 net.cpp:453] inception_4c/relu_pool_proj <- inception_4c/pool_proj
I1111 04:53:30.348728 11674 net.cpp:396] inception_4c/relu_pool_proj -> inception_4c/pool_proj (in-place)
I1111 04:53:30.348734 11674 net.cpp:131] Setting up inception_4c/relu_pool_proj
I1111 04:53:30.348814 11674 net.cpp:140] Top shape: 48 64 14 14 (602112)
I1111 04:53:30.348820 11674 layer_factory.hpp:75] Creating layer inception_4c/output
I1111 04:53:30.348827 11674 net.cpp:99] Creating Layer inception_4c/output
I1111 04:53:30.348831 11674 net.cpp:453] inception_4c/output <- inception_4c/1x1
I1111 04:53:30.348836 11674 net.cpp:453] inception_4c/output <- inception_4c/3x3
I1111 04:53:30.348840 11674 net.cpp:453] inception_4c/output <- inception_4c/5x5
I1111 04:53:30.348845 11674 net.cpp:453] inception_4c/output <- inception_4c/pool_proj
I1111 04:53:30.348853 11674 net.cpp:409] inception_4c/output -> inception_4c/output
I1111 04:53:30.348860 11674 net.cpp:131] Setting up inception_4c/output
I1111 04:53:30.348867 11674 net.cpp:140] Top shape: 48 512 14 14 (4816896)
I1111 04:53:30.348871 11674 layer_factory.hpp:75] Creating layer inception_4c/output_inception_4c/output_0_split
I1111 04:53:30.348877 11674 net.cpp:99] Creating Layer inception_4c/output_inception_4c/output_0_split
I1111 04:53:30.348881 11674 net.cpp:453] inception_4c/output_inception_4c/output_0_split <- inception_4c/output
I1111 04:53:30.348888 11674 net.cpp:409] inception_4c/output_inception_4c/output_0_split -> inception_4c/output_inception_4c/output_0_split_0
I1111 04:53:30.348896 11674 net.cpp:409] inception_4c/output_inception_4c/output_0_split -> inception_4c/output_inception_4c/output_0_split_1
I1111 04:53:30.348903 11674 net.cpp:409] inception_4c/output_inception_4c/output_0_split -> inception_4c/output_inception_4c/output_0_split_2
I1111 04:53:30.348909 11674 net.cpp:409] inception_4c/output_inception_4c/output_0_split -> inception_4c/output_inception_4c/output_0_split_3
I1111 04:53:30.348914 11674 net.cpp:131] Setting up inception_4c/output_inception_4c/output_0_split
I1111 04:53:30.348922 11674 net.cpp:140] Top shape: 48 512 14 14 (4816896)
I1111 04:53:30.348925 11674 net.cpp:140] Top shape: 48 512 14 14 (4816896)
I1111 04:53:30.348929 11674 net.cpp:140] Top shape: 48 512 14 14 (4816896)
I1111 04:53:30.348933 11674 net.cpp:140] Top shape: 48 512 14 14 (4816896)
I1111 04:53:30.348937 11674 layer_factory.hpp:75] Creating layer inception_4d/1x1
I1111 04:53:30.348948 11674 net.cpp:99] Creating Layer inception_4d/1x1
I1111 04:53:30.348951 11674 net.cpp:453] inception_4d/1x1 <- inception_4c/output_inception_4c/output_0_split_0
I1111 04:53:30.348959 11674 net.cpp:409] inception_4d/1x1 -> inception_4d/1x1
I1111 04:53:30.348966 11674 net.cpp:131] Setting up inception_4d/1x1
I1111 04:53:30.349939 11674 net.cpp:140] Top shape: 48 112 14 14 (1053696)
I1111 04:53:30.349963 11674 layer_factory.hpp:75] Creating layer inception_4d/relu_1x1
I1111 04:53:30.349972 11674 net.cpp:99] Creating Layer inception_4d/relu_1x1
I1111 04:53:30.349977 11674 net.cpp:453] inception_4d/relu_1x1 <- inception_4d/1x1
I1111 04:53:30.349987 11674 net.cpp:396] inception_4d/relu_1x1 -> inception_4d/1x1 (in-place)
I1111 04:53:30.349994 11674 net.cpp:131] Setting up inception_4d/relu_1x1
I1111 04:53:30.350337 11674 net.cpp:140] Top shape: 48 112 14 14 (1053696)
I1111 04:53:30.350347 11674 layer_factory.hpp:75] Creating layer inception_4d/3x3_reduce
I1111 04:53:30.350359 11674 net.cpp:99] Creating Layer inception_4d/3x3_reduce
I1111 04:53:30.350363 11674 net.cpp:453] inception_4d/3x3_reduce <- inception_4c/output_inception_4c/output_0_split_1
I1111 04:53:30.350370 11674 net.cpp:409] inception_4d/3x3_reduce -> inception_4d/3x3_reduce
I1111 04:53:30.350378 11674 net.cpp:131] Setting up inception_4d/3x3_reduce
I1111 04:53:30.351496 11674 net.cpp:140] Top shape: 48 144 14 14 (1354752)
I1111 04:53:30.351510 11674 layer_factory.hpp:75] Creating layer inception_4d/relu_3x3_reduce
I1111 04:53:30.351516 11674 net.cpp:99] Creating Layer inception_4d/relu_3x3_reduce
I1111 04:53:30.351521 11674 net.cpp:453] inception_4d/relu_3x3_reduce <- inception_4d/3x3_reduce
I1111 04:53:30.351529 11674 net.cpp:396] inception_4d/relu_3x3_reduce -> inception_4d/3x3_reduce (in-place)
I1111 04:53:30.351536 11674 net.cpp:131] Setting up inception_4d/relu_3x3_reduce
I1111 04:53:30.351608 11674 net.cpp:140] Top shape: 48 144 14 14 (1354752)
I1111 04:53:30.351613 11674 layer_factory.hpp:75] Creating layer inception_4d/3x3
I1111 04:53:30.351624 11674 net.cpp:99] Creating Layer inception_4d/3x3
I1111 04:53:30.351629 11674 net.cpp:453] inception_4d/3x3 <- inception_4d/3x3_reduce
I1111 04:53:30.351634 11674 net.cpp:409] inception_4d/3x3 -> inception_4d/3x3
I1111 04:53:30.351641 11674 net.cpp:131] Setting up inception_4d/3x3
I1111 04:53:30.356168 11674 net.cpp:140] Top shape: 48 288 14 14 (2709504)
I1111 04:53:30.356183 11674 layer_factory.hpp:75] Creating layer inception_4d/relu_3x3
I1111 04:53:30.356190 11674 net.cpp:99] Creating Layer inception_4d/relu_3x3
I1111 04:53:30.356195 11674 net.cpp:453] inception_4d/relu_3x3 <- inception_4d/3x3
I1111 04:53:30.356201 11674 net.cpp:396] inception_4d/relu_3x3 -> inception_4d/3x3 (in-place)
I1111 04:53:30.356207 11674 net.cpp:131] Setting up inception_4d/relu_3x3
I1111 04:53:30.356284 11674 net.cpp:140] Top shape: 48 288 14 14 (2709504)
I1111 04:53:30.356289 11674 layer_factory.hpp:75] Creating layer inception_4d/5x5_reduce
I1111 04:53:30.356300 11674 net.cpp:99] Creating Layer inception_4d/5x5_reduce
I1111 04:53:30.356305 11674 net.cpp:453] inception_4d/5x5_reduce <- inception_4c/output_inception_4c/output_0_split_2
I1111 04:53:30.356312 11674 net.cpp:409] inception_4d/5x5_reduce -> inception_4d/5x5_reduce
I1111 04:53:30.356319 11674 net.cpp:131] Setting up inception_4d/5x5_reduce
I1111 04:53:30.357018 11674 net.cpp:140] Top shape: 48 32 14 14 (301056)
I1111 04:53:30.357030 11674 layer_factory.hpp:75] Creating layer inception_4d/relu_5x5_reduce
I1111 04:53:30.357040 11674 net.cpp:99] Creating Layer inception_4d/relu_5x5_reduce
I1111 04:53:30.357045 11674 net.cpp:453] inception_4d/relu_5x5_reduce <- inception_4d/5x5_reduce
I1111 04:53:30.357051 11674 net.cpp:396] inception_4d/relu_5x5_reduce -> inception_4d/5x5_reduce (in-place)
I1111 04:53:30.357059 11674 net.cpp:131] Setting up inception_4d/relu_5x5_reduce
I1111 04:53:30.357399 11674 net.cpp:140] Top shape: 48 32 14 14 (301056)
I1111 04:53:30.357408 11674 layer_factory.hpp:75] Creating layer inception_4d/5x5
I1111 04:53:30.357419 11674 net.cpp:99] Creating Layer inception_4d/5x5
I1111 04:53:30.357424 11674 net.cpp:453] inception_4d/5x5 <- inception_4d/5x5_reduce
I1111 04:53:30.357431 11674 net.cpp:409] inception_4d/5x5 -> inception_4d/5x5
I1111 04:53:30.357439 11674 net.cpp:131] Setting up inception_4d/5x5
I1111 04:53:30.358371 11674 net.cpp:140] Top shape: 48 64 14 14 (602112)
I1111 04:53:30.358383 11674 layer_factory.hpp:75] Creating layer inception_4d/relu_5x5
I1111 04:53:30.358415 11674 net.cpp:99] Creating Layer inception_4d/relu_5x5
I1111 04:53:30.358428 11674 net.cpp:453] inception_4d/relu_5x5 <- inception_4d/5x5
I1111 04:53:30.358434 11674 net.cpp:396] inception_4d/relu_5x5 -> inception_4d/5x5 (in-place)
I1111 04:53:30.358441 11674 net.cpp:131] Setting up inception_4d/relu_5x5
I1111 04:53:30.358522 11674 net.cpp:140] Top shape: 48 64 14 14 (602112)
I1111 04:53:30.358528 11674 layer_factory.hpp:75] Creating layer inception_4d/pool
I1111 04:53:30.358533 11674 layer_factory.cpp:55] CUDNN does not support padding or multiple tops. Using Caffe's own pooling layer.
I1111 04:53:30.358538 11674 net.cpp:99] Creating Layer inception_4d/pool
I1111 04:53:30.358542 11674 net.cpp:453] inception_4d/pool <- inception_4c/output_inception_4c/output_0_split_3
I1111 04:53:30.358549 11674 net.cpp:409] inception_4d/pool -> inception_4d/pool
I1111 04:53:30.358556 11674 net.cpp:131] Setting up inception_4d/pool
I1111 04:53:30.358563 11674 net.cpp:140] Top shape: 48 512 14 14 (4816896)
I1111 04:53:30.358567 11674 layer_factory.hpp:75] Creating layer inception_4d/pool_proj
I1111 04:53:30.358578 11674 net.cpp:99] Creating Layer inception_4d/pool_proj
I1111 04:53:30.358583 11674 net.cpp:453] inception_4d/pool_proj <- inception_4d/pool
I1111 04:53:30.358592 11674 net.cpp:409] inception_4d/pool_proj -> inception_4d/pool_proj
I1111 04:53:30.358599 11674 net.cpp:131] Setting up inception_4d/pool_proj
I1111 04:53:30.359403 11674 net.cpp:140] Top shape: 48 64 14 14 (602112)
I1111 04:53:30.359416 11674 layer_factory.hpp:75] Creating layer inception_4d/relu_pool_proj
I1111 04:53:30.359423 11674 net.cpp:99] Creating Layer inception_4d/relu_pool_proj
I1111 04:53:30.359428 11674 net.cpp:453] inception_4d/relu_pool_proj <- inception_4d/pool_proj
I1111 04:53:30.359436 11674 net.cpp:396] inception_4d/relu_pool_proj -> inception_4d/pool_proj (in-place)
I1111 04:53:30.359443 11674 net.cpp:131] Setting up inception_4d/relu_pool_proj
I1111 04:53:30.359519 11674 net.cpp:140] Top shape: 48 64 14 14 (602112)
I1111 04:53:30.359524 11674 layer_factory.hpp:75] Creating layer inception_4d/output
I1111 04:53:30.359534 11674 net.cpp:99] Creating Layer inception_4d/output
I1111 04:53:30.359537 11674 net.cpp:453] inception_4d/output <- inception_4d/1x1
I1111 04:53:30.359542 11674 net.cpp:453] inception_4d/output <- inception_4d/3x3
I1111 04:53:30.359547 11674 net.cpp:453] inception_4d/output <- inception_4d/5x5
I1111 04:53:30.359551 11674 net.cpp:453] inception_4d/output <- inception_4d/pool_proj
I1111 04:53:30.359556 11674 net.cpp:409] inception_4d/output -> inception_4d/output
I1111 04:53:30.359563 11674 net.cpp:131] Setting up inception_4d/output
I1111 04:53:30.359570 11674 net.cpp:140] Top shape: 48 528 14 14 (4967424)
I1111 04:53:30.359573 11674 layer_factory.hpp:75] Creating layer inception_4d/output_inception_4d/output_0_split
I1111 04:53:30.359582 11674 net.cpp:99] Creating Layer inception_4d/output_inception_4d/output_0_split
I1111 04:53:30.359586 11674 net.cpp:453] inception_4d/output_inception_4d/output_0_split <- inception_4d/output
I1111 04:53:30.359591 11674 net.cpp:409] inception_4d/output_inception_4d/output_0_split -> inception_4d/output_inception_4d/output_0_split_0
I1111 04:53:30.359599 11674 net.cpp:409] inception_4d/output_inception_4d/output_0_split -> inception_4d/output_inception_4d/output_0_split_1
I1111 04:53:30.359606 11674 net.cpp:409] inception_4d/output_inception_4d/output_0_split -> inception_4d/output_inception_4d/output_0_split_2
I1111 04:53:30.359613 11674 net.cpp:409] inception_4d/output_inception_4d/output_0_split -> inception_4d/output_inception_4d/output_0_split_3
I1111 04:53:30.359619 11674 net.cpp:409] inception_4d/output_inception_4d/output_0_split -> inception_4d/output_inception_4d/output_0_split_4
I1111 04:53:30.359625 11674 net.cpp:131] Setting up inception_4d/output_inception_4d/output_0_split
I1111 04:53:30.359632 11674 net.cpp:140] Top shape: 48 528 14 14 (4967424)
I1111 04:53:30.359637 11674 net.cpp:140] Top shape: 48 528 14 14 (4967424)
I1111 04:53:30.359652 11674 net.cpp:140] Top shape: 48 528 14 14 (4967424)
I1111 04:53:30.359658 11674 net.cpp:140] Top shape: 48 528 14 14 (4967424)
I1111 04:53:30.359661 11674 net.cpp:140] Top shape: 48 528 14 14 (4967424)
I1111 04:53:30.359665 11674 layer_factory.hpp:75] Creating layer loss2/ave_pool
I1111 04:53:30.359675 11674 net.cpp:99] Creating Layer loss2/ave_pool
I1111 04:53:30.359679 11674 net.cpp:453] loss2/ave_pool <- inception_4d/output_inception_4d/output_0_split_0
I1111 04:53:30.359688 11674 net.cpp:409] loss2/ave_pool -> loss2/ave_pool
I1111 04:53:30.359694 11674 net.cpp:131] Setting up loss2/ave_pool
I1111 04:53:30.359765 11674 net.cpp:140] Top shape: 48 528 4 4 (405504)
I1111 04:53:30.359771 11674 layer_factory.hpp:75] Creating layer loss2/conv
I1111 04:53:30.359781 11674 net.cpp:99] Creating Layer loss2/conv
I1111 04:53:30.359786 11674 net.cpp:453] loss2/conv <- loss2/ave_pool
I1111 04:53:30.359791 11674 net.cpp:409] loss2/conv -> loss2/conv
I1111 04:53:30.359797 11674 net.cpp:131] Setting up loss2/conv
I1111 04:53:30.361735 11674 net.cpp:140] Top shape: 48 128 4 4 (98304)
I1111 04:53:30.361749 11674 layer_factory.hpp:75] Creating layer loss2/relu_conv
I1111 04:53:30.361757 11674 net.cpp:99] Creating Layer loss2/relu_conv
I1111 04:53:30.361763 11674 net.cpp:453] loss2/relu_conv <- loss2/conv
I1111 04:53:30.361768 11674 net.cpp:396] loss2/relu_conv -> loss2/conv (in-place)
I1111 04:53:30.361774 11674 net.cpp:131] Setting up loss2/relu_conv
I1111 04:53:30.362246 11674 net.cpp:140] Top shape: 48 128 4 4 (98304)
I1111 04:53:30.362257 11674 layer_factory.hpp:75] Creating layer loss2/fc
I1111 04:53:30.362268 11674 net.cpp:99] Creating Layer loss2/fc
I1111 04:53:30.362272 11674 net.cpp:453] loss2/fc <- loss2/conv
I1111 04:53:30.362279 11674 net.cpp:409] loss2/fc -> loss2/fc
I1111 04:53:30.362287 11674 net.cpp:131] Setting up loss2/fc
I1111 04:53:30.382534 11674 net.cpp:140] Top shape: 48 1024 (49152)
I1111 04:53:30.382547 11674 layer_factory.hpp:75] Creating layer loss2/relu_fc
I1111 04:53:30.382558 11674 net.cpp:99] Creating Layer loss2/relu_fc
I1111 04:53:30.382563 11674 net.cpp:453] loss2/relu_fc <- loss2/fc
I1111 04:53:30.382570 11674 net.cpp:396] loss2/relu_fc -> loss2/fc (in-place)
I1111 04:53:30.382575 11674 net.cpp:131] Setting up loss2/relu_fc
I1111 04:53:30.382657 11674 net.cpp:140] Top shape: 48 1024 (49152)
I1111 04:53:30.382661 11674 layer_factory.hpp:75] Creating layer loss2/drop_fc
I1111 04:53:30.382671 11674 net.cpp:99] Creating Layer loss2/drop_fc
I1111 04:53:30.382674 11674 net.cpp:453] loss2/drop_fc <- loss2/fc
I1111 04:53:30.382679 11674 net.cpp:396] loss2/drop_fc -> loss2/fc (in-place)
I1111 04:53:30.382685 11674 net.cpp:131] Setting up loss2/drop_fc
I1111 04:53:30.382693 11674 net.cpp:140] Top shape: 48 1024 (49152)
I1111 04:53:30.382695 11674 layer_factory.hpp:75] Creating layer loss2/classifier
I1111 04:53:30.382706 11674 net.cpp:99] Creating Layer loss2/classifier
I1111 04:53:30.382709 11674 net.cpp:453] loss2/classifier <- loss2/fc
I1111 04:53:30.382715 11674 net.cpp:409] loss2/classifier -> loss2/classifier
I1111 04:53:30.382722 11674 net.cpp:131] Setting up loss2/classifier
I1111 04:53:30.386344 11674 net.cpp:140] Top shape: 48 333 (15984)
I1111 04:53:30.386358 11674 layer_factory.hpp:75] Creating layer loss2/classifier_loss2/classifier_0_split
I1111 04:53:30.386364 11674 net.cpp:99] Creating Layer loss2/classifier_loss2/classifier_0_split
I1111 04:53:30.386369 11674 net.cpp:453] loss2/classifier_loss2/classifier_0_split <- loss2/classifier
I1111 04:53:30.386375 11674 net.cpp:409] loss2/classifier_loss2/classifier_0_split -> loss2/classifier_loss2/classifier_0_split_0
I1111 04:53:30.386384 11674 net.cpp:409] loss2/classifier_loss2/classifier_0_split -> loss2/classifier_loss2/classifier_0_split_1
I1111 04:53:30.386390 11674 net.cpp:409] loss2/classifier_loss2/classifier_0_split -> loss2/classifier_loss2/classifier_0_split_2
I1111 04:53:30.386396 11674 net.cpp:131] Setting up loss2/classifier_loss2/classifier_0_split
I1111 04:53:30.386402 11674 net.cpp:140] Top shape: 48 333 (15984)
I1111 04:53:30.386437 11674 net.cpp:140] Top shape: 48 333 (15984)
I1111 04:53:30.386442 11674 net.cpp:140] Top shape: 48 333 (15984)
I1111 04:53:30.386446 11674 layer_factory.hpp:75] Creating layer inception_4e/1x1
I1111 04:53:30.386459 11674 net.cpp:99] Creating Layer inception_4e/1x1
I1111 04:53:30.386464 11674 net.cpp:453] inception_4e/1x1 <- inception_4d/output_inception_4d/output_0_split_1
I1111 04:53:30.386471 11674 net.cpp:409] inception_4e/1x1 -> inception_4e/1x1
I1111 04:53:30.386478 11674 net.cpp:131] Setting up inception_4e/1x1
I1111 04:53:30.388146 11674 net.cpp:140] Top shape: 48 256 14 14 (2408448)
I1111 04:53:30.388159 11674 layer_factory.hpp:75] Creating layer inception_4e/relu_1x1
I1111 04:53:30.388192 11674 net.cpp:99] Creating Layer inception_4e/relu_1x1
I1111 04:53:30.388197 11674 net.cpp:453] inception_4e/relu_1x1 <- inception_4e/1x1
I1111 04:53:30.388203 11674 net.cpp:396] inception_4e/relu_1x1 -> inception_4e/1x1 (in-place)
I1111 04:53:30.388209 11674 net.cpp:131] Setting up inception_4e/relu_1x1
I1111 04:53:30.388288 11674 net.cpp:140] Top shape: 48 256 14 14 (2408448)
I1111 04:53:30.388293 11674 layer_factory.hpp:75] Creating layer inception_4e/3x3_reduce
I1111 04:53:30.388303 11674 net.cpp:99] Creating Layer inception_4e/3x3_reduce
I1111 04:53:30.388308 11674 net.cpp:453] inception_4e/3x3_reduce <- inception_4d/output_inception_4d/output_0_split_2
I1111 04:53:30.388314 11674 net.cpp:409] inception_4e/3x3_reduce -> inception_4e/3x3_reduce
I1111 04:53:30.388321 11674 net.cpp:131] Setting up inception_4e/3x3_reduce
I1111 04:53:30.392952 11674 net.cpp:140] Top shape: 48 160 14 14 (1505280)
I1111 04:53:30.392977 11674 layer_factory.hpp:75] Creating layer inception_4e/relu_3x3_reduce
I1111 04:53:30.392990 11674 net.cpp:99] Creating Layer inception_4e/relu_3x3_reduce
I1111 04:53:30.393002 11674 net.cpp:453] inception_4e/relu_3x3_reduce <- inception_4e/3x3_reduce
I1111 04:53:30.393013 11674 net.cpp:396] inception_4e/relu_3x3_reduce -> inception_4e/3x3_reduce (in-place)
I1111 04:53:30.393020 11674 net.cpp:131] Setting up inception_4e/relu_3x3_reduce
I1111 04:53:30.393098 11674 net.cpp:140] Top shape: 48 160 14 14 (1505280)
I1111 04:53:30.393103 11674 layer_factory.hpp:75] Creating layer inception_4e/3x3
I1111 04:53:30.393113 11674 net.cpp:99] Creating Layer inception_4e/3x3
I1111 04:53:30.393117 11674 net.cpp:453] inception_4e/3x3 <- inception_4e/3x3_reduce
I1111 04:53:30.393126 11674 net.cpp:409] inception_4e/3x3 -> inception_4e/3x3
I1111 04:53:30.393133 11674 net.cpp:131] Setting up inception_4e/3x3
I1111 04:53:30.398442 11674 net.cpp:140] Top shape: 48 320 14 14 (3010560)
I1111 04:53:30.398455 11674 layer_factory.hpp:75] Creating layer inception_4e/relu_3x3
I1111 04:53:30.398468 11674 net.cpp:99] Creating Layer inception_4e/relu_3x3
I1111 04:53:30.398473 11674 net.cpp:453] inception_4e/relu_3x3 <- inception_4e/3x3
I1111 04:53:30.398479 11674 net.cpp:396] inception_4e/relu_3x3 -> inception_4e/3x3 (in-place)
I1111 04:53:30.398488 11674 net.cpp:131] Setting up inception_4e/relu_3x3
I1111 04:53:30.398846 11674 net.cpp:140] Top shape: 48 320 14 14 (3010560)
I1111 04:53:30.398854 11674 layer_factory.hpp:75] Creating layer inception_4e/5x5_reduce
I1111 04:53:30.398866 11674 net.cpp:99] Creating Layer inception_4e/5x5_reduce
I1111 04:53:30.398871 11674 net.cpp:453] inception_4e/5x5_reduce <- inception_4d/output_inception_4d/output_0_split_3
I1111 04:53:30.398882 11674 net.cpp:409] inception_4e/5x5_reduce -> inception_4e/5x5_reduce
I1111 04:53:30.398891 11674 net.cpp:131] Setting up inception_4e/5x5_reduce
I1111 04:53:30.399606 11674 net.cpp:140] Top shape: 48 32 14 14 (301056)
I1111 04:53:30.399621 11674 layer_factory.hpp:75] Creating layer inception_4e/relu_5x5_reduce
I1111 04:53:30.399631 11674 net.cpp:99] Creating Layer inception_4e/relu_5x5_reduce
I1111 04:53:30.399636 11674 net.cpp:453] inception_4e/relu_5x5_reduce <- inception_4e/5x5_reduce
I1111 04:53:30.399642 11674 net.cpp:396] inception_4e/relu_5x5_reduce -> inception_4e/5x5_reduce (in-place)
I1111 04:53:30.399649 11674 net.cpp:131] Setting up inception_4e/relu_5x5_reduce
I1111 04:53:30.399740 11674 net.cpp:140] Top shape: 48 32 14 14 (301056)
I1111 04:53:30.399746 11674 layer_factory.hpp:75] Creating layer inception_4e/5x5
I1111 04:53:30.399758 11674 net.cpp:99] Creating Layer inception_4e/5x5
I1111 04:53:30.399762 11674 net.cpp:453] inception_4e/5x5 <- inception_4e/5x5_reduce
I1111 04:53:30.399768 11674 net.cpp:409] inception_4e/5x5 -> inception_4e/5x5
I1111 04:53:30.399776 11674 net.cpp:131] Setting up inception_4e/5x5
I1111 04:53:30.401090 11674 net.cpp:140] Top shape: 48 128 14 14 (1204224)
I1111 04:53:30.401105 11674 layer_factory.hpp:75] Creating layer inception_4e/relu_5x5
I1111 04:53:30.401115 11674 net.cpp:99] Creating Layer inception_4e/relu_5x5
I1111 04:53:30.401119 11674 net.cpp:453] inception_4e/relu_5x5 <- inception_4e/5x5
I1111 04:53:30.401129 11674 net.cpp:396] inception_4e/relu_5x5 -> inception_4e/5x5 (in-place)
I1111 04:53:30.401134 11674 net.cpp:131] Setting up inception_4e/relu_5x5
I1111 04:53:30.401206 11674 net.cpp:140] Top shape: 48 128 14 14 (1204224)
I1111 04:53:30.401213 11674 layer_factory.hpp:75] Creating layer inception_4e/pool
I1111 04:53:30.401218 11674 layer_factory.cpp:55] CUDNN does not support padding or multiple tops. Using Caffe's own pooling layer.
I1111 04:53:30.401223 11674 net.cpp:99] Creating Layer inception_4e/pool
I1111 04:53:30.401227 11674 net.cpp:453] inception_4e/pool <- inception_4d/output_inception_4d/output_0_split_4
I1111 04:53:30.401237 11674 net.cpp:409] inception_4e/pool -> inception_4e/pool
I1111 04:53:30.401244 11674 net.cpp:131] Setting up inception_4e/pool
I1111 04:53:30.401252 11674 net.cpp:140] Top shape: 48 528 14 14 (4967424)
I1111 04:53:30.401255 11674 layer_factory.hpp:75] Creating layer inception_4e/pool_proj
I1111 04:53:30.401265 11674 net.cpp:99] Creating Layer inception_4e/pool_proj
I1111 04:53:30.401270 11674 net.cpp:453] inception_4e/pool_proj <- inception_4e/pool
I1111 04:53:30.401279 11674 net.cpp:409] inception_4e/pool_proj -> inception_4e/pool_proj
I1111 04:53:30.401286 11674 net.cpp:131] Setting up inception_4e/pool_proj
I1111 04:53:30.402340 11674 net.cpp:140] Top shape: 48 128 14 14 (1204224)
I1111 04:53:30.402354 11674 layer_factory.hpp:75] Creating layer inception_4e/relu_pool_proj
I1111 04:53:30.402364 11674 net.cpp:99] Creating Layer inception_4e/relu_pool_proj
I1111 04:53:30.402369 11674 net.cpp:453] inception_4e/relu_pool_proj <- inception_4e/pool_proj
I1111 04:53:30.402374 11674 net.cpp:396] inception_4e/relu_pool_proj -> inception_4e/pool_proj (in-place)
I1111 04:53:30.402381 11674 net.cpp:131] Setting up inception_4e/relu_pool_proj
I1111 04:53:30.402464 11674 net.cpp:140] Top shape: 48 128 14 14 (1204224)
I1111 04:53:30.402470 11674 layer_factory.hpp:75] Creating layer inception_4e/output
I1111 04:53:30.402477 11674 net.cpp:99] Creating Layer inception_4e/output
I1111 04:53:30.402482 11674 net.cpp:453] inception_4e/output <- inception_4e/1x1
I1111 04:53:30.402487 11674 net.cpp:453] inception_4e/output <- inception_4e/3x3
I1111 04:53:30.402493 11674 net.cpp:453] inception_4e/output <- inception_4e/5x5
I1111 04:53:30.402498 11674 net.cpp:453] inception_4e/output <- inception_4e/pool_proj
I1111 04:53:30.402503 11674 net.cpp:409] inception_4e/output -> inception_4e/output
I1111 04:53:30.402509 11674 net.cpp:131] Setting up inception_4e/output
I1111 04:53:30.402516 11674 net.cpp:140] Top shape: 48 832 14 14 (7827456)
I1111 04:53:30.402520 11674 layer_factory.hpp:75] Creating layer pool4/3x3_s2
I1111 04:53:30.402528 11674 net.cpp:99] Creating Layer pool4/3x3_s2
I1111 04:53:30.402531 11674 net.cpp:453] pool4/3x3_s2 <- inception_4e/output
I1111 04:53:30.402541 11674 net.cpp:409] pool4/3x3_s2 -> pool4/3x3_s2
I1111 04:53:30.402552 11674 net.cpp:131] Setting up pool4/3x3_s2
I1111 04:53:30.402911 11674 net.cpp:140] Top shape: 48 832 7 7 (1956864)
I1111 04:53:30.402920 11674 layer_factory.hpp:75] Creating layer pool4/3x3_s2_pool4/3x3_s2_0_split
I1111 04:53:30.402930 11674 net.cpp:99] Creating Layer pool4/3x3_s2_pool4/3x3_s2_0_split
I1111 04:53:30.402933 11674 net.cpp:453] pool4/3x3_s2_pool4/3x3_s2_0_split <- pool4/3x3_s2
I1111 04:53:30.402958 11674 net.cpp:409] pool4/3x3_s2_pool4/3x3_s2_0_split -> pool4/3x3_s2_pool4/3x3_s2_0_split_0
I1111 04:53:30.402966 11674 net.cpp:409] pool4/3x3_s2_pool4/3x3_s2_0_split -> pool4/3x3_s2_pool4/3x3_s2_0_split_1
I1111 04:53:30.402974 11674 net.cpp:409] pool4/3x3_s2_pool4/3x3_s2_0_split -> pool4/3x3_s2_pool4/3x3_s2_0_split_2
I1111 04:53:30.403035 11674 net.cpp:409] pool4/3x3_s2_pool4/3x3_s2_0_split -> pool4/3x3_s2_pool4/3x3_s2_0_split_3
I1111 04:53:30.403043 11674 net.cpp:131] Setting up pool4/3x3_s2_pool4/3x3_s2_0_split
I1111 04:53:30.403050 11674 net.cpp:140] Top shape: 48 832 7 7 (1956864)
I1111 04:53:30.403054 11674 net.cpp:140] Top shape: 48 832 7 7 (1956864)
I1111 04:53:30.403059 11674 net.cpp:140] Top shape: 48 832 7 7 (1956864)
I1111 04:53:30.403064 11674 net.cpp:140] Top shape: 48 832 7 7 (1956864)
I1111 04:53:30.403069 11674 layer_factory.hpp:75] Creating layer inception_5a/1x1
I1111 04:53:30.403080 11674 net.cpp:99] Creating Layer inception_5a/1x1
I1111 04:53:30.403084 11674 net.cpp:453] inception_5a/1x1 <- pool4/3x3_s2_pool4/3x3_s2_0_split_0
I1111 04:53:30.403091 11674 net.cpp:409] inception_5a/1x1 -> inception_5a/1x1
I1111 04:53:30.403098 11674 net.cpp:131] Setting up inception_5a/1x1
I1111 04:53:30.406451 11674 net.cpp:140] Top shape: 48 256 7 7 (602112)
I1111 04:53:30.406474 11674 layer_factory.hpp:75] Creating layer inception_5a/relu_1x1
I1111 04:53:30.406489 11674 net.cpp:99] Creating Layer inception_5a/relu_1x1
I1111 04:53:30.406497 11674 net.cpp:453] inception_5a/relu_1x1 <- inception_5a/1x1
I1111 04:53:30.406505 11674 net.cpp:396] inception_5a/relu_1x1 -> inception_5a/1x1 (in-place)
I1111 04:53:30.406513 11674 net.cpp:131] Setting up inception_5a/relu_1x1
I1111 04:53:30.406599 11674 net.cpp:140] Top shape: 48 256 7 7 (602112)
I1111 04:53:30.406613 11674 layer_factory.hpp:75] Creating layer inception_5a/3x3_reduce
I1111 04:53:30.406626 11674 net.cpp:99] Creating Layer inception_5a/3x3_reduce
I1111 04:53:30.406632 11674 net.cpp:453] inception_5a/3x3_reduce <- pool4/3x3_s2_pool4/3x3_s2_0_split_1
I1111 04:53:30.406641 11674 net.cpp:409] inception_5a/3x3_reduce -> inception_5a/3x3_reduce
I1111 04:53:30.406651 11674 net.cpp:131] Setting up inception_5a/3x3_reduce
I1111 04:53:30.409217 11674 net.cpp:140] Top shape: 48 160 7 7 (376320)
I1111 04:53:30.409234 11674 layer_factory.hpp:75] Creating layer inception_5a/relu_3x3_reduce
I1111 04:53:30.409245 11674 net.cpp:99] Creating Layer inception_5a/relu_3x3_reduce
I1111 04:53:30.409250 11674 net.cpp:453] inception_5a/relu_3x3_reduce <- inception_5a/3x3_reduce
I1111 04:53:30.409255 11674 net.cpp:396] inception_5a/relu_3x3_reduce -> inception_5a/3x3_reduce (in-place)
I1111 04:53:30.409262 11674 net.cpp:131] Setting up inception_5a/relu_3x3_reduce
I1111 04:53:30.409345 11674 net.cpp:140] Top shape: 48 160 7 7 (376320)
I1111 04:53:30.409353 11674 layer_factory.hpp:75] Creating layer inception_5a/3x3
I1111 04:53:30.409363 11674 net.cpp:99] Creating Layer inception_5a/3x3
I1111 04:53:30.409368 11674 net.cpp:453] inception_5a/3x3 <- inception_5a/3x3_reduce
I1111 04:53:30.409375 11674 net.cpp:409] inception_5a/3x3 -> inception_5a/3x3
I1111 04:53:30.409384 11674 net.cpp:131] Setting up inception_5a/3x3
I1111 04:53:30.414742 11674 net.cpp:140] Top shape: 48 320 7 7 (752640)
I1111 04:53:30.414759 11674 layer_factory.hpp:75] Creating layer inception_5a/relu_3x3
I1111 04:53:30.414768 11674 net.cpp:99] Creating Layer inception_5a/relu_3x3
I1111 04:53:30.414773 11674 net.cpp:453] inception_5a/relu_3x3 <- inception_5a/3x3
I1111 04:53:30.414783 11674 net.cpp:396] inception_5a/relu_3x3 -> inception_5a/3x3 (in-place)
I1111 04:53:30.414789 11674 net.cpp:131] Setting up inception_5a/relu_3x3
I1111 04:53:30.415202 11674 net.cpp:140] Top shape: 48 320 7 7 (752640)
I1111 04:53:30.415215 11674 layer_factory.hpp:75] Creating layer inception_5a/5x5_reduce
I1111 04:53:30.415228 11674 net.cpp:99] Creating Layer inception_5a/5x5_reduce
I1111 04:53:30.415235 11674 net.cpp:453] inception_5a/5x5_reduce <- pool4/3x3_s2_pool4/3x3_s2_0_split_2
I1111 04:53:30.415242 11674 net.cpp:409] inception_5a/5x5_reduce -> inception_5a/5x5_reduce
I1111 04:53:30.415277 11674 net.cpp:131] Setting up inception_5a/5x5_reduce
I1111 04:53:30.416298 11674 net.cpp:140] Top shape: 48 32 7 7 (75264)
I1111 04:53:30.416316 11674 layer_factory.hpp:75] Creating layer inception_5a/relu_5x5_reduce
I1111 04:53:30.416327 11674 net.cpp:99] Creating Layer inception_5a/relu_5x5_reduce
I1111 04:53:30.416334 11674 net.cpp:453] inception_5a/relu_5x5_reduce <- inception_5a/5x5_reduce
I1111 04:53:30.416344 11674 net.cpp:396] inception_5a/relu_5x5_reduce -> inception_5a/5x5_reduce (in-place)
I1111 04:53:30.416352 11674 net.cpp:131] Setting up inception_5a/relu_5x5_reduce
I1111 04:53:30.416443 11674 net.cpp:140] Top shape: 48 32 7 7 (75264)
I1111 04:53:30.416450 11674 layer_factory.hpp:75] Creating layer inception_5a/5x5
I1111 04:53:30.416465 11674 net.cpp:99] Creating Layer inception_5a/5x5
I1111 04:53:30.416471 11674 net.cpp:453] inception_5a/5x5 <- inception_5a/5x5_reduce
I1111 04:53:30.416479 11674 net.cpp:409] inception_5a/5x5 -> inception_5a/5x5
I1111 04:53:30.416487 11674 net.cpp:131] Setting up inception_5a/5x5
I1111 04:53:30.417899 11674 net.cpp:140] Top shape: 48 128 7 7 (301056)
I1111 04:53:30.417912 11674 layer_factory.hpp:75] Creating layer inception_5a/relu_5x5
I1111 04:53:30.417922 11674 net.cpp:99] Creating Layer inception_5a/relu_5x5
I1111 04:53:30.417927 11674 net.cpp:453] inception_5a/relu_5x5 <- inception_5a/5x5
I1111 04:53:30.417933 11674 net.cpp:396] inception_5a/relu_5x5 -> inception_5a/5x5 (in-place)
I1111 04:53:30.417940 11674 net.cpp:131] Setting up inception_5a/relu_5x5
I1111 04:53:30.418069 11674 net.cpp:140] Top shape: 48 128 7 7 (301056)
I1111 04:53:30.418076 11674 layer_factory.hpp:75] Creating layer inception_5a/pool
I1111 04:53:30.418083 11674 layer_factory.cpp:55] CUDNN does not support padding or multiple tops. Using Caffe's own pooling layer.
I1111 04:53:30.418089 11674 net.cpp:99] Creating Layer inception_5a/pool
I1111 04:53:30.418095 11674 net.cpp:453] inception_5a/pool <- pool4/3x3_s2_pool4/3x3_s2_0_split_3
I1111 04:53:30.418102 11674 net.cpp:409] inception_5a/pool -> inception_5a/pool
I1111 04:53:30.418109 11674 net.cpp:131] Setting up inception_5a/pool
I1111 04:53:30.418118 11674 net.cpp:140] Top shape: 48 832 7 7 (1956864)
I1111 04:53:30.418123 11674 layer_factory.hpp:75] Creating layer inception_5a/pool_proj
I1111 04:53:30.418130 11674 net.cpp:99] Creating Layer inception_5a/pool_proj
I1111 04:53:30.418135 11674 net.cpp:453] inception_5a/pool_proj <- inception_5a/pool
I1111 04:53:30.418141 11674 net.cpp:409] inception_5a/pool_proj -> inception_5a/pool_proj
I1111 04:53:30.418148 11674 net.cpp:131] Setting up inception_5a/pool_proj
I1111 04:53:30.420368 11674 net.cpp:140] Top shape: 48 128 7 7 (301056)
I1111 04:53:30.420382 11674 layer_factory.hpp:75] Creating layer inception_5a/relu_pool_proj
I1111 04:53:30.420389 11674 net.cpp:99] Creating Layer inception_5a/relu_pool_proj
I1111 04:53:30.420394 11674 net.cpp:453] inception_5a/relu_pool_proj <- inception_5a/pool_proj
I1111 04:53:30.420402 11674 net.cpp:396] inception_5a/relu_pool_proj -> inception_5a/pool_proj (in-place)
I1111 04:53:30.420408 11674 net.cpp:131] Setting up inception_5a/relu_pool_proj
I1111 04:53:30.420485 11674 net.cpp:140] Top shape: 48 128 7 7 (301056)
I1111 04:53:30.420491 11674 layer_factory.hpp:75] Creating layer inception_5a/output
I1111 04:53:30.420500 11674 net.cpp:99] Creating Layer inception_5a/output
I1111 04:53:30.420503 11674 net.cpp:453] inception_5a/output <- inception_5a/1x1
I1111 04:53:30.420508 11674 net.cpp:453] inception_5a/output <- inception_5a/3x3
I1111 04:53:30.420513 11674 net.cpp:453] inception_5a/output <- inception_5a/5x5
I1111 04:53:30.420517 11674 net.cpp:453] inception_5a/output <- inception_5a/pool_proj
I1111 04:53:30.420522 11674 net.cpp:409] inception_5a/output -> inception_5a/output
I1111 04:53:30.420529 11674 net.cpp:131] Setting up inception_5a/output
I1111 04:53:30.420536 11674 net.cpp:140] Top shape: 48 832 7 7 (1956864)
I1111 04:53:30.420541 11674 layer_factory.hpp:75] Creating layer inception_5a/output_inception_5a/output_0_split
I1111 04:53:30.420564 11674 net.cpp:99] Creating Layer inception_5a/output_inception_5a/output_0_split
I1111 04:53:30.420569 11674 net.cpp:453] inception_5a/output_inception_5a/output_0_split <- inception_5a/output
I1111 04:53:30.420575 11674 net.cpp:409] inception_5a/output_inception_5a/output_0_split -> inception_5a/output_inception_5a/output_0_split_0
I1111 04:53:30.420583 11674 net.cpp:409] inception_5a/output_inception_5a/output_0_split -> inception_5a/output_inception_5a/output_0_split_1
I1111 04:53:30.420593 11674 net.cpp:409] inception_5a/output_inception_5a/output_0_split -> inception_5a/output_inception_5a/output_0_split_2
I1111 04:53:30.420599 11674 net.cpp:409] inception_5a/output_inception_5a/output_0_split -> inception_5a/output_inception_5a/output_0_split_3
I1111 04:53:30.420604 11674 net.cpp:131] Setting up inception_5a/output_inception_5a/output_0_split
I1111 04:53:30.420611 11674 net.cpp:140] Top shape: 48 832 7 7 (1956864)
I1111 04:53:30.420615 11674 net.cpp:140] Top shape: 48 832 7 7 (1956864)
I1111 04:53:30.420620 11674 net.cpp:140] Top shape: 48 832 7 7 (1956864)
I1111 04:53:30.420624 11674 net.cpp:140] Top shape: 48 832 7 7 (1956864)
I1111 04:53:30.420627 11674 layer_factory.hpp:75] Creating layer inception_5b/1x1
I1111 04:53:30.420635 11674 net.cpp:99] Creating Layer inception_5b/1x1
I1111 04:53:30.420639 11674 net.cpp:453] inception_5b/1x1 <- inception_5a/output_inception_5a/output_0_split_0
I1111 04:53:30.420647 11674 net.cpp:409] inception_5b/1x1 -> inception_5b/1x1
I1111 04:53:30.420655 11674 net.cpp:131] Setting up inception_5b/1x1
I1111 04:53:30.424540 11674 net.cpp:140] Top shape: 48 384 7 7 (903168)
I1111 04:53:30.424554 11674 layer_factory.hpp:75] Creating layer inception_5b/relu_1x1
I1111 04:53:30.424564 11674 net.cpp:99] Creating Layer inception_5b/relu_1x1
I1111 04:53:30.424569 11674 net.cpp:453] inception_5b/relu_1x1 <- inception_5b/1x1
I1111 04:53:30.424576 11674 net.cpp:396] inception_5b/relu_1x1 -> inception_5b/1x1 (in-place)
I1111 04:53:30.424582 11674 net.cpp:131] Setting up inception_5b/relu_1x1
I1111 04:53:30.424942 11674 net.cpp:140] Top shape: 48 384 7 7 (903168)
I1111 04:53:30.424950 11674 layer_factory.hpp:75] Creating layer inception_5b/3x3_reduce
I1111 04:53:30.424964 11674 net.cpp:99] Creating Layer inception_5b/3x3_reduce
I1111 04:53:30.424969 11674 net.cpp:453] inception_5b/3x3_reduce <- inception_5a/output_inception_5a/output_0_split_1
I1111 04:53:30.424976 11674 net.cpp:409] inception_5b/3x3_reduce -> inception_5b/3x3_reduce
I1111 04:53:30.424984 11674 net.cpp:131] Setting up inception_5b/3x3_reduce
I1111 04:53:30.427508 11674 net.cpp:140] Top shape: 48 192 7 7 (451584)
I1111 04:53:30.427521 11674 layer_factory.hpp:75] Creating layer inception_5b/relu_3x3_reduce
I1111 04:53:30.427531 11674 net.cpp:99] Creating Layer inception_5b/relu_3x3_reduce
I1111 04:53:30.427536 11674 net.cpp:453] inception_5b/relu_3x3_reduce <- inception_5b/3x3_reduce
I1111 04:53:30.427541 11674 net.cpp:396] inception_5b/relu_3x3_reduce -> inception_5b/3x3_reduce (in-place)
I1111 04:53:30.427548 11674 net.cpp:131] Setting up inception_5b/relu_3x3_reduce
I1111 04:53:30.427624 11674 net.cpp:140] Top shape: 48 192 7 7 (451584)
I1111 04:53:30.427629 11674 layer_factory.hpp:75] Creating layer inception_5b/3x3
I1111 04:53:30.427640 11674 net.cpp:99] Creating Layer inception_5b/3x3
I1111 04:53:30.427644 11674 net.cpp:453] inception_5b/3x3 <- inception_5b/3x3_reduce
I1111 04:53:30.427651 11674 net.cpp:409] inception_5b/3x3 -> inception_5b/3x3
I1111 04:53:30.427659 11674 net.cpp:131] Setting up inception_5b/3x3
I1111 04:53:30.434741 11674 net.cpp:140] Top shape: 48 384 7 7 (903168)
I1111 04:53:30.434754 11674 layer_factory.hpp:75] Creating layer inception_5b/relu_3x3
I1111 04:53:30.434764 11674 net.cpp:99] Creating Layer inception_5b/relu_3x3
I1111 04:53:30.434769 11674 net.cpp:453] inception_5b/relu_3x3 <- inception_5b/3x3
I1111 04:53:30.434775 11674 net.cpp:396] inception_5b/relu_3x3 -> inception_5b/3x3 (in-place)
I1111 04:53:30.434782 11674 net.cpp:131] Setting up inception_5b/relu_3x3
I1111 04:53:30.434872 11674 net.cpp:140] Top shape: 48 384 7 7 (903168)
I1111 04:53:30.434878 11674 layer_factory.hpp:75] Creating layer inception_5b/5x5_reduce
I1111 04:53:30.434891 11674 net.cpp:99] Creating Layer inception_5b/5x5_reduce
I1111 04:53:30.434896 11674 net.cpp:453] inception_5b/5x5_reduce <- inception_5a/output_inception_5a/output_0_split_2
I1111 04:53:30.434906 11674 net.cpp:409] inception_5b/5x5_reduce -> inception_5b/5x5_reduce
I1111 04:53:30.434912 11674 net.cpp:131] Setting up inception_5b/5x5_reduce
I1111 04:53:30.436648 11674 net.cpp:140] Top shape: 48 48 7 7 (112896)
I1111 04:53:30.436662 11674 layer_factory.hpp:75] Creating layer inception_5b/relu_5x5_reduce
I1111 04:53:30.436671 11674 net.cpp:99] Creating Layer inception_5b/relu_5x5_reduce
I1111 04:53:30.436676 11674 net.cpp:453] inception_5b/relu_5x5_reduce <- inception_5b/5x5_reduce
I1111 04:53:30.436681 11674 net.cpp:396] inception_5b/relu_5x5_reduce -> inception_5b/5x5_reduce (in-place)
I1111 04:53:30.436688 11674 net.cpp:131] Setting up inception_5b/relu_5x5_reduce
I1111 04:53:30.436765 11674 net.cpp:140] Top shape: 48 48 7 7 (112896)
I1111 04:53:30.436771 11674 layer_factory.hpp:75] Creating layer inception_5b/5x5
I1111 04:53:30.436784 11674 net.cpp:99] Creating Layer inception_5b/5x5
I1111 04:53:30.436787 11674 net.cpp:453] inception_5b/5x5 <- inception_5b/5x5_reduce
I1111 04:53:30.436794 11674 net.cpp:409] inception_5b/5x5 -> inception_5b/5x5
I1111 04:53:30.436801 11674 net.cpp:131] Setting up inception_5b/5x5
I1111 04:53:30.438500 11674 net.cpp:140] Top shape: 48 128 7 7 (301056)
I1111 04:53:30.438516 11674 layer_factory.hpp:75] Creating layer inception_5b/relu_5x5
I1111 04:53:30.438525 11674 net.cpp:99] Creating Layer inception_5b/relu_5x5
I1111 04:53:30.438529 11674 net.cpp:453] inception_5b/relu_5x5 <- inception_5b/5x5
I1111 04:53:30.438537 11674 net.cpp:396] inception_5b/relu_5x5 -> inception_5b/5x5 (in-place)
I1111 04:53:30.438544 11674 net.cpp:131] Setting up inception_5b/relu_5x5
I1111 04:53:30.438894 11674 net.cpp:140] Top shape: 48 128 7 7 (301056)
I1111 04:53:30.438904 11674 layer_factory.hpp:75] Creating layer inception_5b/pool
I1111 04:53:30.438910 11674 layer_factory.cpp:55] CUDNN does not support padding or multiple tops. Using Caffe's own pooling layer.
I1111 04:53:30.438915 11674 net.cpp:99] Creating Layer inception_5b/pool
I1111 04:53:30.438920 11674 net.cpp:453] inception_5b/pool <- inception_5a/output_inception_5a/output_0_split_3
I1111 04:53:30.438925 11674 net.cpp:409] inception_5b/pool -> inception_5b/pool
I1111 04:53:30.438932 11674 net.cpp:131] Setting up inception_5b/pool
I1111 04:53:30.438941 11674 net.cpp:140] Top shape: 48 832 7 7 (1956864)
I1111 04:53:30.438943 11674 layer_factory.hpp:75] Creating layer inception_5b/pool_proj
I1111 04:53:30.438956 11674 net.cpp:99] Creating Layer inception_5b/pool_proj
I1111 04:53:30.438959 11674 net.cpp:453] inception_5b/pool_proj <- inception_5b/pool
I1111 04:53:30.438967 11674 net.cpp:409] inception_5b/pool_proj -> inception_5b/pool_proj
I1111 04:53:30.438974 11674 net.cpp:131] Setting up inception_5b/pool_proj
I1111 04:53:30.441177 11674 net.cpp:140] Top shape: 48 128 7 7 (301056)
I1111 04:53:30.441190 11674 layer_factory.hpp:75] Creating layer inception_5b/relu_pool_proj
I1111 04:53:30.441201 11674 net.cpp:99] Creating Layer inception_5b/relu_pool_proj
I1111 04:53:30.441206 11674 net.cpp:453] inception_5b/relu_pool_proj <- inception_5b/pool_proj
I1111 04:53:30.441215 11674 net.cpp:396] inception_5b/relu_pool_proj -> inception_5b/pool_proj (in-place)
I1111 04:53:30.441222 11674 net.cpp:131] Setting up inception_5b/relu_pool_proj
I1111 04:53:30.441299 11674 net.cpp:140] Top shape: 48 128 7 7 (301056)
I1111 04:53:30.441304 11674 layer_factory.hpp:75] Creating layer inception_5b/output
I1111 04:53:30.441313 11674 net.cpp:99] Creating Layer inception_5b/output
I1111 04:53:30.441318 11674 net.cpp:453] inception_5b/output <- inception_5b/1x1
I1111 04:53:30.441323 11674 net.cpp:453] inception_5b/output <- inception_5b/3x3
I1111 04:53:30.441341 11674 net.cpp:453] inception_5b/output <- inception_5b/5x5
I1111 04:53:30.441346 11674 net.cpp:453] inception_5b/output <- inception_5b/pool_proj
I1111 04:53:30.441352 11674 net.cpp:409] inception_5b/output -> inception_5b/output
I1111 04:53:30.441361 11674 net.cpp:131] Setting up inception_5b/output
I1111 04:53:30.441368 11674 net.cpp:140] Top shape: 48 1024 7 7 (2408448)
I1111 04:53:30.441373 11674 layer_factory.hpp:75] Creating layer pool5/7x7_s1
I1111 04:53:30.441380 11674 net.cpp:99] Creating Layer pool5/7x7_s1
I1111 04:53:30.441383 11674 net.cpp:453] pool5/7x7_s1 <- inception_5b/output
I1111 04:53:30.441390 11674 net.cpp:409] pool5/7x7_s1 -> pool5/7x7_s1
I1111 04:53:30.441395 11674 net.cpp:131] Setting up pool5/7x7_s1
I1111 04:53:30.441468 11674 net.cpp:140] Top shape: 48 1024 1 1 (49152)
I1111 04:53:30.441473 11674 layer_factory.hpp:75] Creating layer pool5/drop_7x7_s1
I1111 04:53:30.441481 11674 net.cpp:99] Creating Layer pool5/drop_7x7_s1
I1111 04:53:30.441485 11674 net.cpp:453] pool5/drop_7x7_s1 <- pool5/7x7_s1
I1111 04:53:30.441490 11674 net.cpp:396] pool5/drop_7x7_s1 -> pool5/7x7_s1 (in-place)
I1111 04:53:30.441495 11674 net.cpp:131] Setting up pool5/drop_7x7_s1
I1111 04:53:30.441503 11674 net.cpp:140] Top shape: 48 1024 1 1 (49152)
I1111 04:53:30.441506 11674 layer_factory.hpp:75] Creating layer loss3/classifier
I1111 04:53:30.441519 11674 net.cpp:99] Creating Layer loss3/classifier
I1111 04:53:30.441522 11674 net.cpp:453] loss3/classifier <- pool5/7x7_s1
I1111 04:53:30.441531 11674 net.cpp:409] loss3/classifier -> loss3/classifier
I1111 04:53:30.441539 11674 net.cpp:131] Setting up loss3/classifier
I1111 04:53:30.451495 11674 net.cpp:140] Top shape: 48 1000 (48000)
I1111 04:53:30.451508 11674 layer_factory.hpp:75] Creating layer loss3/classifier_loss3/classifier_0_split
I1111 04:53:30.451520 11674 net.cpp:99] Creating Layer loss3/classifier_loss3/classifier_0_split
I1111 04:53:30.451525 11674 net.cpp:453] loss3/classifier_loss3/classifier_0_split <- loss3/classifier
I1111 04:53:30.451532 11674 net.cpp:409] loss3/classifier_loss3/classifier_0_split -> loss3/classifier_loss3/classifier_0_split_0
I1111 04:53:30.451539 11674 net.cpp:409] loss3/classifier_loss3/classifier_0_split -> loss3/classifier_loss3/classifier_0_split_1
I1111 04:53:30.451546 11674 net.cpp:409] loss3/classifier_loss3/classifier_0_split -> loss3/classifier_loss3/classifier_0_split_2
I1111 04:53:30.451551 11674 net.cpp:131] Setting up loss3/classifier_loss3/classifier_0_split
I1111 04:53:30.451557 11674 net.cpp:140] Top shape: 48 1000 (48000)
I1111 04:53:30.451561 11674 net.cpp:140] Top shape: 48 1000 (48000)
I1111 04:53:30.451565 11674 net.cpp:140] Top shape: 48 1000 (48000)
I1111 04:53:30.451570 11674 layer_factory.hpp:75] Creating layer loss1/loss
I1111 04:53:30.451581 11674 net.cpp:99] Creating Layer loss1/loss
I1111 04:53:30.451586 11674 net.cpp:453] loss1/loss <- loss1/classifier_loss1/classifier_0_split_0
I1111 04:53:30.451591 11674 net.cpp:453] loss1/loss <- label1_argmax_label1_0_split_0
I1111 04:53:30.451596 11674 net.cpp:409] loss1/loss -> loss1/loss1
…
I1111 04:53:30.459030 11674 net.cpp:316] The NetState phase (1) differed from the phase (0) specified by a rule in layer label
I1111 04:53:30.460209 11674 net.cpp:47] Initializing net from parameters:
state {
phase: TEST
}
layer {
name: "data"
type: "Data"
top: "data"
include {
phase: TEST
}
transform_param {
mirror: false
crop_size: 224
mean_file: "/home/nvidia/imagenet_lmdb/mean.binaryproto"
}
data_param {
source: "/home/nvidia/imagenet_lmdb/val_data_lmdb"
batch_size: 25
backend: LMDB
}
}
layer {
name: "label"
type: "Data"
top: "label"
include {
phase: TEST
}
data_param {
source: "/home/nvidia/imagenet_lmdb/val_labels_one_hot_lmdb"
batch_size: 25
backend: LMDB
}
}
layer {
name: "slicer_label"
type: "Slice"
bottom: "label"
top: "label1_one_hot"
top: "label2_one_hot"
top: "label3_one_hot"
slice_param {
slice_point: 1
slice_point: 2
axis: 1
}
}
layer {
name: "argmax_label1"
type: "ArgMax"
bottom: "label1_one_hot"
top: "label1"
}
layer {
name: "argmax_label2"
type: "ArgMax"
bottom: "label2_one_hot"
top: "label2"
}
layer {
name: "argmax_label3"
type: "ArgMax"
bottom: "label3_one_hot"
top: "label3"
}
layer {
name: "conv1/7x7_s2"
type: "Convolution"
bottom: "data"
top: "conv1/7x7_s2"
param {
lr_mult: 1
decay_mult: 1
}
param {
lr_mult: 2
decay_mult: 0
}
convolution_param {
num_output: 64
pad: 3
kernel_size: 7
stride: 2
weight_filler {
type: "xavier"
std: 0.1
}
bias_filler {
type: "constant"
value: 0.2
}
}
}
layer {
name: "conv1/relu_7x7"
type: "ReLU"
bottom: "conv1/7x7_s2"
top: "conv1/7x7_s2"
}
layer {
name: "pool1/3x3_s2"
type: "Pooling"
bottom: "conv1/7x7_s2"
top: "pool1/3x3_s2"
pooling_param {
pool: MAX
kernel_size: 3
stride: 2
}
}
layer {
name: "pool1/norm1"
type: "LRN"
bottom: "pool1/3x3_s2"
top: "pool1/norm1"
lrn_param {
local_size: 5
alpha: 0.0001
beta: 0.75
}
}
layer {
name: "conv2/3x3_reduce"
type: "Convolution"
bottom: "pool1/norm1"
top: "conv2/3x3_reduce"
param {
lr_mult: 1
decay_mult: 1
}
param {
lr_mult: 2
decay_mult: 0
}
convolution_param {
num_output: 64
kernel_size: 1
weight_filler {
type: "xavier"
std: 0.1
}
bias_filler {
type: "constant"
value: 0.2
}
}
}
layer {
name: "conv2/relu_3x3_reduce"
type: "ReLU"
bottom: "conv2/3x3_reduce"
top: "conv2/3x3_reduce"
}
layer {
name: "conv2/3x3"
type: "Convolution"
bottom: "conv2/3x3_reduce"
top: "conv2/3x3"
param {
lr_mult: 1
decay_mult: 1
}
param {
lr_mult: 2
decay_mult: 0
}
convolution_param {
num_output: 192
pad: 1
kernel_size: 3
weight_filler {
type: "xavier"
std: 0.03
}
bias_filler {
type: "constant"
value: 0.2
}
}
}
layer {
name: "conv2/relu_3x3"
type: "ReLU"
bottom: "conv2/3x3"
top: "conv2/3x3"
}
layer {
name: "conv2/norm2"
type: "LRN"
bottom: "conv2/3x3"
top: "conv2/norm2"
lrn_param {
local_size: 5
alpha: 0.0001
beta: 0.75
}
}
layer {
name: "pool2/3x3_s2"
type: "Pooling"
bottom: "conv2/norm2"
top: "pool2/3x3_s2"
pooling_param {
pool: MAX
kernel_size: 3
stride: 2
}
}
layer {
name: "inception_3a/1x1"
type: "Convolution"
bottom: "pool2/3x3_s2"
top: "inception_3a/1x1"
param {
lr_mult: 1
decay_mult: 1
}
param {
lr_mult: 2
decay_mult: 0
}
convolution_param {
num_output: 64
kernel_size: 1
weight_filler {
type: "xavier"
std: 0.03
}
bias_filler {
type: "constant"
value: 0.2
}
}
}
layer {
name: "inception_3a/relu_1x1"
type: "ReLU"
bottom: "inception_3a/1x1"
top: "inception_3a/1x1"
}
layer {
name: "inception_3a/3x3_reduce"
type: "Convolution"
bottom: "pool2/3x3_s2"
top: "inception_3a/3x3_reduce"
param {
lr_mult: 1
decay_mult: 1
}
param {
lr_mult: 2
decay_mult: 0
}
convolution_param {
num_output: 96
kernel_size: 1
weight_filler {
type: "xavier"
std: 0.09
}
bias_filler {
type: "constant"
value: 0.2
}
}
}
layer {
name: "inception_3a/relu_3x3_reduce"
type: "ReLU"
bottom: "inception_3a/3x3_reduce"
top: "inception_3a/3x3_reduce"
}
layer {
name: "inception_3a/3x3"
type: "Convolution"
bottom: "inception_3a/3x3_reduce"
top: "inception_3a/3x3"
param {
lr_mult: 1
decay_mult: 1
}
param {
lr_mult: 2
decay_mult: 0
}
convolution_param {
num_output: 128
pad: 1
kernel_size: 3
weight_filler {
type: "xavier"
std: 0.03
}
bias_filler {
type: "constant"
value: 0.2
}
}
}
layer {
name: "inception_3a/relu_3x3"
type: "ReLU"
bottom: "inception_3a/3x3"
top: "inception_3a/3x3"
}
layer {
name: "inception_3a/5x5_reduce"
type: "Convolution"
bottom: "pool2/3x3_s2"
top: "inception_3a/5x5_reduce"
param {
lr_mult: 1
decay_mult: 1
}
param {
lr_mult: 2
decay_mult: 0
}
convolution_param {
num_output: 16
kernel_size: 1
weight_filler {
type: "xavier"
std: 0.2
}
bias_filler {
type: "constant"
value: 0.2
}
}
}
layer {
name: "inception_3a/relu_5x5_reduce"
type: "ReLU"
bottom: "inception_3a/5x5_reduce"
top: "inception_3a/5x5_reduce"
}
layer {
name: "inception_3a/5x5"
type: "Convolution"
bottom: "inception_3a/5x5_reduce"
top: "inception_3a/5x5"
param {
lr_mult: 1
decay_mult: 1
}
param {
lr_mult: 2
decay_mult: 0
}
convolution_param {
num_output: 32
pad: 2
kernel_size: 5
weight_filler {
type: "xavier"
std: 0.03
}
bias_filler {
type: "constant"
value: 0.2
}
}
}
layer {
name: "inception_3a/relu_5x5"
type: "ReLU"
bottom: "inception_3a/5x5"
top: "inception_3a/5x5"
}
layer {
name: "inception_3a/pool"
type: "Pooling"
bottom: "pool2/3x3_s2"
top: "inception_3a/pool"
pooling_param {
pool: MAX
kernel_size: 3
stride: 1
pad: 1
}
}
layer {
name: "inception_3a/pool_proj"
type: "Convolution"
bottom: "inception_3a/pool"
top: "inception_3a/pool_proj"
param {
lr_mult: 1
decay_mult: 1
}
param {
lr_mult: 2
decay_mult: 0
}
convolution_param {
num_output: 32
kernel_size: 1
weight_filler {
type: "xavier"
std: 0.1
}
bias_filler {
type: "constant"
value: 0.2
}
}
}
layer {
name: "inception_3a/relu_pool_proj"
type: "ReLU"
bottom: "inception_3a/pool_proj"
top: "inception_3a/pool_proj"
}
layer {
name: "inception_3a/output"
type: "Concat"
bottom: "inception_3a/1x1"
bottom: "inception_3a/3x3"
bottom: "inception_3a/5x5"
bottom: "inception_3a/pool_proj"
top: "inception_3a/output"
}
layer {
name: "inception_3b/1x1"
type: "Convolution"
bottom: "inception_3a/output"
top: "inception_3b/1x1"
param {
lr_mult: 1
decay_mult: 1
}
param {
lr_mult: 2
decay_mult: 0
}
convolution_param {
num_output: 128
kernel_size: 1
weight_filler {
type: "xavier"
std: 0.03
}
bias_filler {
type: "constant"
value: 0.2
}
}
}
layer {
name: "inception_3b/relu_1x1"
type: "ReLU"
bottom: "inception_3b/1x1"
top: "inception_3b/1x1"
}
layer {
name: "inception_3b/3x3_reduce"
type: "Convolution"
bottom: "inception_3a/output"
top: "inception_3b/3x3_reduce"
param {
lr_mult: 1
decay_mult: 1
}
param {
lr_mult: 2
decay_mult: 0
}
convolution_param {
num_output: 128
kernel_size: 1
weight_filler {
type: "xavier"
std: 0.09
}
bias_filler {
type: "constant"
value: 0.2
}
}
}
layer {
name: "inception_3b/relu_3x3_reduce"
type: "ReLU"
bottom: "inception_3b/3x3_reduce"
top: "inception_3b/3x3_reduce"
}
layer {
name: "inception_3b/3x3"
type: "Convolution"
bottom: "inception_3b/3x3_reduce"
top: "inception_3b/3x3"
param {
lr_mult: 1
decay_mult: 1
}
param {
lr_mult: 2
decay_mult: 0
}
convolution_param {
num_output: 192
pad: 1
kernel_size: 3
weight_filler {
type: "xavier"
std: 0.03
}
bias_filler {
type: "constant"
value: 0.2
}
}
}
layer {
name: "inception_3b/relu_3x3"
type: "ReLU"
bottom: "inception_3b/3x3"
top: "inception_3b/3x3"
}
layer {
name: "inception_3b/5x5_reduce"
type: "Convolution"
bottom: "inception_3a/output"
top: "inception_3b/5x5_reduce"
param {
lr_mult: 1
decay_mult: 1
}
param {
lr_mult: 2
decay_mult: 0
}
convolution_param {
num_output: 32
kernel_size: 1
weight_filler {
type: "xavier"
std: 0.2
}
bias_filler {
type: "constant"
value: 0.2
}
}
}
layer {
name: "inception_3b/relu_5x5_reduce"
type: "ReLU"
bottom: "inception_3b/5x5_reduce"
top: "inception_3b/5x5_reduce"
}
layer {
name: "inception_3b/5x5"
type: "Convolution"
bottom: "inception_3b/5x5_reduce"
top: "inception_3b/5x5"
param {
lr_mult: 1
decay_mult: 1
}
param {
lr_mult: 2
decay_mult: 0
}
convolution_param {
num_output: 96
pad: 2
kernel_size: 5
weight_filler {
type: "xavier"
std: 0.03
}
bias_filler {
type: "constant"
value: 0.2
}
}
}
layer {
name: "inception_3b/relu_5x5"
type: "ReLU"
bottom: "inception_3b/5x5"
top: "inception_3b/5x5"
}
layer {
name: "inception_3b/pool"
type: "Pooling"
bottom: "inception_3a/output"
top: "inception_3b/pool"
pooling_param {
pool: MAX
kernel_size: 3
stride: 1
pad: 1
}
}
layer {
name: "inception_3b/pool_proj"
type: "Convolution"
bottom: "inception_3b/pool"
top: "inception_3b/pool_proj"
param {
lr_mult: 1
decay_mult: 1
}
param {
lr_mult: 2
decay_mult: 0
}
convolution_param {
num_output: 64
kernel_size: 1
weight_filler {
type: "xavier"
std: 0.1
}
bias_filler {
type: "constant"
value: 0.2
}
}
}
layer {
name: "inception_3b/relu_pool_proj"
type: "ReLU"
bottom: "inception_3b/pool_proj"
top: "inception_3b/pool_proj"
}
layer {
name: "inception_3b/output"
type: "Concat"
bottom: "inception_3b/1x1"
bottom: "inception_3b/3x3"
bottom: "inception_3b/5x5"
bottom: "inception_3b/pool_proj"
top: "inception_3b/output"
}
layer {
name: "pool3/3x3_s2"
type: "Pooling"
bottom: "inception_3b/output"
top: "pool3/3x3_s2"
pooling_param {
pool: MAX
kernel_size: 3
stride: 2
}
}
layer {
name: "inception_4a/1x1"
type: "Convolution"
bottom: "pool3/3x3_s2"
top: "inception_4a/1x1"
param {
lr_mult: 1
decay_mult: 1
}
param {
lr_mult: 2
decay_mult: 0
}
convolution_param {
num_output: 192
kernel_size: 1
weight_filler {
type: "xavier"
std: 0.03
}
bias_filler {
type: "constant"
value: 0.2
}
}
}
layer {
name: "inception_4a/relu_1x1"
type: "ReLU"
bottom: "inception_4a/1x1"
top: "inception_4a/1x1"
}
layer {
name: "inception_4a/3x3_reduce"
type: "Convolution"
bottom: "pool3/3x3_s2"
top: "inception_4a/3x3_reduce"
param {
lr_mult: 1
decay_mult: 1
}
param {
lr_mult: 2
decay_mult: 0
}
convolution_param {
num_output: 96
kernel_size: 1
weight_filler {
type: "xavier"
std: 0.09
}
bias_filler {
type: "constant"
value: 0.2
}
}
}
layer {
name: "inception_4a/relu_3x3_reduce"
type: "ReLU"
bottom: "inception_4a/3x3_reduce"
top: "inception_4a/3x3_reduce"
}
layer {
name: "inception_4a/3x3"
type: "Convolution"
bottom: "inception_4a/3x3_reduce"
top: "inception_4a/3x3"
param {
lr_mult: 1
decay_mult: 1
}
param {
lr_mult: 2
decay_mult: 0
}
convolution_param {
num_output: 208
pad: 1
kernel_size: 3
weight_filler {
type: "xavier"
std: 0.03
}
bias_filler {
type: "constant"
value: 0.2
}
}
}
layer {
name: "inception_4a/relu_3x3"
type: "ReLU"
bottom: "inception_4a/3x3"
top: "inception_4a/3x3"
}
layer {
name: "inception_4a/5x5_reduce"
type: "Convolution"
bottom: "pool3/3x3_s2"
top: "inception_4a/5x5_reduce"
param {
lr_mult: 1
decay_mult: 1
}
param {
lr_mult: 2
decay_mult: 0
}
convolution_param {
num_output: 16
kernel_size: 1
weight_filler {
type: "xavier"
std: 0.2
}
bias_filler {
type: "constant"
value: 0.2
}
}
}
layer {
name: "inception_4a/relu_5x5_reduce"
type: "ReLU"
bottom: "inception_4a/5x5_reduce"
top: "inception_4a/5x5_reduce"
}
layer {
name: "inception_4a/5x5"
type: "Convolution"
bottom: "inception_4a/5x5_reduce"
top: "inception_4a/5x5"
param {
lr_mult: 1
decay_mult: 1
}
param {
lr_mult: 2
decay_mult: 0
}
convolution_param {
num_output: 48
pad: 2
kernel_size: 5
weight_filler {
type: "xavier"
std: 0.03
}
bias_filler {
type: "constant"
value: 0.2
}
}
}
layer {
name: "inception_4a/relu_5x5"
type: "ReLU"
bottom: "inception_4a/5x5"
top: "inception_4a/5x5"
}
layer {
name: "inception_4a/pool"
type: "Pooling"
bottom: "pool3/3x3_s2"
top: "inception_4a/pool"
pooling_param {
pool: MAX
kernel_size: 3
stride: 1
pad: 1
}
}
layer {
name: "inception_4a/pool_proj"
type: "Convolution"
bottom: "inception_4a/pool"
top: "inception_4a/pool_proj"
param {
lr_mult: 1
decay_mult: 1
}
param {
lr_mult: 2
decay_mult: 0
}
convolution_param {
num_output: 64
kernel_size: 1
weight_filler {
type: "xavier"
std: 0.1
}
bias_filler {
type: "constant"
value: 0.2
}
}
}
layer {
name: "inception_4a/relu_pool_proj"
type: "ReLU"
bottom: "inception_4a/pool_proj"
top: "inception_4a/pool_proj"
}
layer {
name: "inception_4a/output"
type: "Concat"
bottom: "inception_4a/1x1"
bottom: "inception_4a/3x3"
bottom: "inception_4a/5x5"
bottom: "inception_4a/pool_proj"
top: "inception_4a/output"
}
layer {
name: "loss1/ave_pool"
type: "Pooling"
bottom: "inception_4a/output"
top: "loss1/ave_pool"
pooling_param {
pool: AVE
kernel_size: 5
stride: 3
}
}
layer {
name: "loss1/conv"
type: "Convolution"
bottom: "loss1/ave_pool"
top: "loss1/conv"
param {
lr_mult: 1
decay_mult: 1
}
param {
lr_mult: 2
decay_mult: 0
}
convolution_param {
num_output: 128
kernel_size: 1
weight_filler {
type: "xavier"
std: 0.08
}
bias_filler {
type: "constant"
value: 0.2
}
}
}
layer {
name: "loss1/relu_conv"
type: "ReLU"
bottom: "loss1/conv"
top: "loss1/conv"
}
layer {
name: "loss1/fc"
type: "InnerProduct"
bottom: "loss1/conv"
top: "loss1/fc"
param {
lr_mult: 1
decay_mult: 1
}
param {
lr_mult: 2
decay_mult: 0
}
inner_product_param {
num_output: 1024
weight_filler {
type: "xavier"
std: 0.02
}
bias_filler {
type: "constant"
value: 0.2
}
}
}
layer {
name: "loss1/relu_fc"
type: "ReLU"
bottom: "loss1/fc"
top: "loss1/fc"
}
layer {
name: "loss1/drop_fc"
type: "Dropout"
bottom: "loss1/fc"
top: "loss1/fc"
dropout_param {
dropout_ratio: 0.7
}
}
layer {
name: "loss1/classifier"
type: "InnerProduct"
bottom: "loss1/fc"
top: "loss1/classifier"
param {
lr_mult: 1
decay_mult: 1
}
param {
lr_mult: 2
decay_mult: 0
}
inner_product_param {
num_output: 69
weight_filler {
type: "xavier"
std: 0.0009765625
}
bias_filler {
type: "constant"
value: 0
}
}
}
layer {
name: "inception_4b/1x1"
type: "Convolution"
bottom: "inception_4a/output"
top: "inception_4b/1x1"
param {
lr_mult: 1
decay_mult: 1
}
param {
lr_mult: 2
decay_mult: 0
}
convolution_param {
num_output: 160
kernel_size: 1
weight_filler {
type: "xavier"
std: 0.03
}
bias_filler {
type: "constant"
value: 0.2
}
}
}
layer {
name: "inception_4b/relu_1x1"
type: "ReLU"
bottom: "inception_4b/1x1"
top: "inception_4b/1x1"
}
layer {
name: "inception_4b/3x3_reduce"
type: "Convolution"
bottom: "inception_4a/output"
top: "inception_4b/3x3_reduce"
param {
lr_mult: 1
decay_mult: 1
}
param {
lr_mult: 2
decay_mult: 0
}
convolution_param {
num_output: 112
kernel_size: 1
weight_filler {
type: "xavier"
std: 0.09
}
bias_filler {
type: "constant"
value: 0.2
}
}
}
layer {
name: "inception_4b/relu_3x3_reduce"
type: "ReLU"
bottom: "inception_4b/3x3_reduce"
top: "inception_4b/3x3_reduce"
}
layer {
name: "inception_4b/3x3"
type: "Convolution"
bottom: "inception_4b/3x3_reduce"
top: "inception_4b/3x3"
param {
lr_mult: 1
decay_mult: 1
}
param {
lr_mult: 2
decay_mult: 0
}
convolution_param {
num_output: 224
pad: 1
kernel_size: 3
weight_filler {
type: "xavier"
std: 0.03
}
bias_filler {
type: "constant"
value: 0.2
}
}
}
layer {
name: "inception_4b/relu_3x3"
type: "ReLU"
bottom: "inception_4b/3x3"
top: "inception_4b/3x3"
}
layer {
name: "inception_4b/5x5_reduce"
type: "Convolution"
bottom: "inception_4a/output"
top: "inception_4b/5x5_reduce"
param {
lr_mult: 1
decay_mult: 1
}
param {
lr_mult: 2
decay_mult: 0
}
convolution_param {
num_output: 24
kernel_size: 1
weight_filler {
type: "xavier"
std: 0.2
}
bias_filler {
type: "constant"
value: 0.2
}
}
}
layer {
name: "inception_4b/relu_5x5_reduce"
type: "ReLU"
bottom: "inception_4b/5x5_reduce"
top: "inception_4b/5x5_reduce"
}
layer {
name: "inception_4b/5x5"
type: "Convolution"
bottom: "inception_4b/5x5_reduce"
top: "inception_4b/5x5"
param {
lr_mult: 1
decay_mult: 1
}
param {
lr_mult: 2
decay_mult: 0
}
convolution_param {
num_output: 64
pad: 2
kernel_size: 5
weight_filler {
type: "xavier"
std: 0.03
}
bias_filler {
type: "constant"
value: 0.2
}
}
}
layer {
name: "inception_4b/relu_5x5"
type: "ReLU"
bottom: "inception_4b/5x5"
top: "inception_4b/5x5"
}
layer {
name: "inception_4b/pool"
type: "Pooling"
bottom: "inception_4a/output"
top: "inception_4b/pool"
pooling_param {
pool: MAX
kernel_size: 3
stride: 1
pad: 1
}
}
layer {
name: "inception_4b/pool_proj"
type: "Convolution"
bottom: "inception_4b/pool"
top: "inception_4b/pool_proj"
param {
lr_mult: 1
decay_mult: 1
}
param {
lr_mult: 2
decay_mult: 0
}
convolution_param {
num_output: 64
kernel_size: 1
weight_filler {
type: "xavier"
std: 0.1
}
bias_filler {
type: "constant"
value: 0.2
}
}
}
layer {
name: "inception_4b/relu_pool_proj"
type: "ReLU"
bottom: "inception_4b/pool_proj"
top: "inception_4b/pool_proj"
}
layer {
name: "inception_4b/output"
type: "Concat"
bottom: "inception_4b/1x1"
bottom: "inception_4b/3x3"
bottom: "inception_4b/5x5"
bottom: "inception_4b/pool_proj"
top: "inception_4b/output"
}
layer {
name: "inception_4c/1x1"
type: "Convolution"
bottom: "inception_4b/output"
top: "inception_4c/1x1"
param {
lr_mult: 1
decay_mult: 1
}
param {
lr_mult: 2
decay_mult: 0
}
convolution_param {
num_output: 128
kernel_size: 1
weight_filler {
type: "xavier"
std: 0.03
}
bias_filler {
type: "constant"
value: 0.2
}
}
}
layer {
name: "inception_4c/relu_1x1"
type: "ReLU"
bottom: "inception_4c/1x1"
top: "inception_4c/1x1"
}
layer {
name: "inception_4c/3x3_reduce"
type: "Convolution"
bottom: "inception_4b/output"
top: "inception_4c/3x3_reduce"
param {
lr_mult: 1
decay_mult: 1
}
param {
lr_mult: 2
decay_mult: 0
}
convolution_param {
num_output: 128
kernel_size: 1
weight_filler {
type: "xavier"
std: 0.09
}
bias_filler {
type: "constant"
value: 0.2
}
}
}
layer {
name: "inception_4c/relu_3x3_reduce"
type: "ReLU"
bottom: "inception_4c/3x3_reduce"
top: "inception_4c/3x3_reduce"
}
layer {
name: "inception_4c/3x3"
type: "Convolution"
bottom: "inception_4c/3x3_reduce"
top: "inception_4c/3x3"
param {
lr_mult: 1
decay_mult: 1
}
param {
lr_mult: 2
decay_mult: 0
}
convolution_param {
num_output: 256
pad: 1
kernel_size: 3
weight_filler {
type: "xavier"
std: 0.03
}
bias_filler {
type: "constant"
value: 0.2
}
}
}
layer {
name: "inception_4c/relu_3x3"
type: "ReLU"
bottom: "inception_4c/3x3"
top: "inception_4c/3x3"
}
layer {
name: "inception_4c/5x5_reduce"
type: "Convolution"
bottom: "inception_4b/output"
top: "inception_4c/5x5_reduce"
param {
lr_mult: 1
decay_mult: 1
}
param {
lr_mult: 2
decay_mult: 0
}
convolution_param {
num_output: 24
kernel_size: 1
weight_filler {
type: "xavier"
std: 0.2
}
bias_filler {
type: "constant"
value: 0.2
}
}
}
layer {
name: "inception_4c/relu_5x5_reduce"
type: "ReLU"
bottom: "inception_4c/5x5_reduce"
top: "inception_4c/5x5_reduce"
}
layer {
name: "inception_4c/5x5"
type: "Convolution"
bottom: "inception_4c/5x5_reduce"
top: "inception_4c/5x5"
param {
lr_mult: 1
decay_mult: 1
}
param {
lr_mult: 2
decay_mult: 0
}
convolution_param {
num_output: 64
pad: 2
kernel_size: 5
weight_filler {
type: "xavier"
std: 0.03
}
bias_filler {
type: "constant"
value: 0.2
}
}
}
layer {
name: "inception_4c/relu_5x5"
type: "ReLU"
bottom: "inception_4c/5x5"
top: "inception_4c/5x5"
}
layer {
name: "inception_4c/pool"
type: "Pooling"
bottom: "inception_4b/output"
top: "inception_4c/pool"
pooling_param {
pool: MAX
kernel_size: 3
stride: 1
pad: 1
}
}
layer {
name: "inception_4c/pool_proj"
type: "Convolution"
bottom: "inception_4c/pool"
top: "inception_4c/pool_proj"
param {
lr_mult: 1
decay_mult: 1
}
param {
lr_mult: 2
decay_mult: 0
}
convolution_param {
num_output: 64
kernel_size: 1
weight_filler {
type: "xavier"
std: 0.1
}
bias_filler {
type: "constant"
value: 0.2
}
}
}
layer {
name: "inception_4c/relu_pool_proj"
type: "ReLU"
bottom: "inception_4c/pool_proj"
top: "inception_4c/pool_proj"
}
layer {
name: "inception_4c/output"
type: "Concat"
bottom: "inception_4c/1x1"
bottom: "inception_4c/3x3"
bottom: "inception_4c/5x5"
bottom: "inception_4c/pool_proj"
top: "inception_4c/output"
}
layer {
name: "inception_4d/1x1"
type: "Convolution"
bottom: "inception_4c/output"
top: "inception_4d/1x1"
param {
lr_mult: 1
decay_mult: 1
}
param {
lr_mult: 2
decay_mult: 0
}
convolution_param {
num_output: 112
kernel_size: 1
weight_filler {
type: "xavier"
std: 0.03
}
bias_filler {
type: "constant"
value: 0.2
}
}
}
layer {
name: "inception_4d/relu_1x1"
type: "ReLU"
bottom: "inception_4d/1x1"
top: "inception_4d/1x1"
}
layer {
name: "inception_4d/3x3_reduce"
type: "Convolution"
bottom: "inception_4c/output"
top: "inception_4d/3x3_reduce"
param {
lr_mult: 1
decay_mult: 1
}
param {
lr_mult: 2
decay_mult: 0
}
convolution_param {
num_output: 144
kernel_size: 1
weight_filler {
type: "xavier"
std: 0.09
}
bias_filler {
type: "constant"
value: 0.2
}
}
}
layer {
name: "inception_4d/relu_3x3_reduce"
type: "ReLU"
bottom: "inception_4d/3x3_reduce"
top: "inception_4d/3x3_reduce"
}
layer {
name: "inception_4d/3x3"
type: "Convolution"
bottom: "inception_4d/3x3_reduce"
top: "inception_4d/3x3"
param {
lr_mult: 1
decay_mult: 1
}
param {
lr_mult: 2
decay_mult: 0
}
convolution_param {
num_output: 288
pad: 1
kernel_size: 3
weight_filler {
type: "xavier"
std: 0.03
}
bias_filler {
type: "constant"
value: 0.2
}
}
}
layer {
name: "inception_4d/relu_3x3"
type: "ReLU"
bottom: "inception_4d/3x3"
top: "inception_4d/3x3"
}
layer {
name: "inception_4d/5x5_reduce"
type: "Convolution"
bottom: "inception_4c/output"
top: "inception_4d/5x5_reduce"
param {
lr_mult: 1
decay_mult: 1
}
param {
lr_mult: 2
decay_mult: 0
}
convolution_param {
num_output: 32
kernel_size: 1
weight_filler {
type: "xavier"
std: 0.2
}
bias_filler {
type: "constant"
value: 0.2
}
}
}
layer {
name: "inception_4d/relu_5x5_reduce"
type: "ReLU"
bottom: "inception_4d/5x5_reduce"
top: "inception_4d/5x5_reduce"
}
layer {
name: "inception_4d/5x5"
type: "Convolution"
bottom: "inception_4d/5x5_reduce"
top: "inception_4d/5x5"
param {
lr_mult: 1
decay_mult: 1
}
param {
lr_mult: 2
decay_mult: 0
}
convolution_param {
num_output: 64
pad: 2
kernel_size: 5
weight_filler {
type: "xavier"
std: 0.03
}
bias_filler {
type: "constant"
value: 0.2
}
}
}
layer {
name: "inception_4d/relu_5x5"
type: "ReLU"
bottom: "inception_4d/5x5"
top: "inception_4d/5x5"
}
layer {
name: "inception_4d/pool"
type: "Pooling"
bottom: "inception_4c/output"
top: "inception_4d/pool"
pooling_param {
pool: MAX
kernel_size: 3
stride: 1
pad: 1
}
}
layer {
name: "inception_4d/pool_proj"
type: "Convolution"
bottom: "inception_4d/pool"
top: "inception_4d/pool_proj"
param {
lr_mult: 1
decay_mult: 1
}
param {
lr_mult: 2
decay_mult: 0
}
convolution_param {
num_output: 64
kernel_size: 1
weight_filler {
type: "xavier"
std: 0.1
}
bias_filler {
type: "constant"
value: 0.2
}
}
}
layer {
name: "inception_4d/relu_pool_proj"
type: "ReLU"
bottom: "inception_4d/pool_proj"
top: "inception_4d/pool_proj"
}
layer {
name: "inception_4d/output"
type: "Concat"
bottom: "inception_4d/1x1"
bottom: "inception_4d/3x3"
bottom: "inception_4d/5x5"
bottom: "inception_4d/pool_proj"
top: "inception_4d/output"
}
layer {
name: "loss2/ave_pool"
type: "Pooling"
bottom: "inception_4d/output"
top: "loss2/ave_pool"
pooling_param {
pool: AVE
kernel_size: 5
stride: 3
}
}
layer {
name: "loss2/conv"
type: "Convolution"
bottom: "loss2/ave_pool"
top: "loss2/conv"
param {
lr_mult: 1
decay_mult: 1
}
param {
lr_mult: 2
decay_mult: 0
}
convolution_param {
num_output: 128
kernel_size: 1
weight_filler {
type: "xavier"
std: 0.08
}
bias_filler {
type: "constant"
value: 0.2
}
}
}
layer {
name: "loss2/relu_conv"
type: "ReLU"
bottom: "loss2/conv"
top: "loss2/conv"
}
layer {
name: "loss2/fc"
type: "InnerProduct"
bottom: "loss2/conv"
top: "loss2/fc"
param {
lr_mult: 1
decay_mult: 1
}
param {
lr_mult: 2
decay_mult: 0
}
inner_product_param {
num_output: 1024
weight_filler {
type: "xavier"
std: 0.02
}
bias_filler {
type: "constant"
value: 0.2
}
}
}
layer {
name: "loss2/relu_fc"
type: "ReLU"
bottom: "loss2/fc"
top: "loss2/fc"
}
layer {
name: "loss2/drop_fc"
type: "Dropout"
bottom: "loss2/fc"
top: "loss2/fc"
dropout_param {
dropout_ratio: 0.7
}
}
layer {
name: "loss2/classifier"
type: "InnerProduct"
bottom: "loss2/fc"
top: "loss2/classifier"
param {
lr_mult: 1
decay_mult: 1
}
param {
lr_mult: 2
decay_mult: 0
}
inner_product_param {
num_output: 333
weight_filler {
type: "xavier"
std: 0.0009765625
}
bias_filler {
type: "constant"
value: 0
}
}
}
layer {
name: "inception_4e/1x1"
type: "Convolution"
bottom: "inception_4d/output"
top: "inception_4e/1x1"
param {
lr_mult: 1
decay_mult: 1
}
param {
lr_mult: 2
decay_mult: 0
}
convolution_param {
num_output: 256
kernel_size: 1
weight_filler {
type: "xavier"
std: 0.03
}
bias_filler {
type: "constant"
value: 0.2
}
}
}
layer {
name: "inception_4e/relu_1x1"
type: "ReLU"
bottom: "inception_4e/1x1"
top: "inception_4e/1x1"
}
layer {
name: "inception_4e/3x3_reduce"
type: "Convolution"
bottom: "inception_4d/output"
top: "inception_4e/3x3_reduce"
param {
lr_mult: 1
decay_mult: 1
}
param {
lr_mult: 2
decay_mult: 0
}
convolution_param {
num_output: 160
kernel_size: 1
weight_filler {
type: "xavier"
std: 0.09
}
bias_filler {
type: "constant"
value: 0.2
}
}
}
layer {
name: "inception_4e/relu_3x3_reduce"
type: "ReLU"
bottom: "inception_4e/3x3_reduce"
top: "inception_4e/3x3_reduce"
}
layer {
name: "inception_4e/3x3"
type: "Convolution"
bottom: "inception_4e/3x3_reduce"
top: "inception_4e/3x3"
param {
lr_mult: 1
decay_mult: 1
}
param {
lr_mult: 2
decay_mult: 0
}
convolution_param {
num_output: 320
pad: 1
kernel_size: 3
weight_filler {
type: "xavier"
std: 0.03
}
bias_filler {
type: "constant"
value: 0.2
}
}
}
layer {
name: "inception_4e/relu_3x3"
type: "ReLU"
bottom: "inception_4e/3x3"
top: "inception_4e/3x3"
}
layer {
name: "inception_4e/5x5_reduce"
type: "Convolution"
bottom: "i
I1111 04:53:30.461107 11674 layer_factory.hpp:75] Creating layer data
I1111 04:53:30.461221 11674 net.cpp:99] Creating Layer data
I1111 04:53:30.461231 11674 net.cpp:409] data -> data
I1111 04:53:30.461241 11674 net.cpp:131] Setting up data
I1111 04:53:30.462935 11682 db.cpp:34] Opened lmdb /home/nvidia/imagenet_lmdb/val_data_lmdb
I1111 04:53:30.463338 11674 data_layer.cpp:60] output data size: 25,3,224,224
I1111 04:53:30.463353 11674 data_transformer.cpp:23] Loading mean file from: /home/nvidia/imagenet_lmdb/mean.binaryproto
…
I1111 04:53:30.587615 11674 net.cpp:409] inception_4b/output_inception_4b/output_0_split -> inception_4b/output_inception_4b/output_0_split_0
I1111 04:53:30.587626 11674 net.cpp:409] inception_4b/output_inception_4b/output_0_split -> inception_4b/output_inception_4b/output_0_split_1
I1111 04:53:30.587633 11674 net.cpp:409] inception_4b/output_inception_4b/output_0_split -> inception_4b/output_inception_4b/output_0_split_2
I1111 04:53:30.587640 11674 net.cpp:409] inception_4b/output_inception_4b/output_0_split -> inception_4b/output_inception_4b/output_0_split_3
I1111 04:53:30.587644 11674 net.cpp:131] Setting up inception_4b/output_inception_4b/output_0_split
I1111 04:53:30.587651 11674 net.cpp:140] Top shape: 25 512 14 14 (2508800)
I1111 04:53:30.587654 11674 net.cpp:140] Top shape: 25 512 14 14 (2508800)
I1111 04:53:30.587657 11674 net.cpp:140] Top shape: 25 512 14 14 (2508800)
I1111 04:53:30.587661 11674 net.cpp:140] Top shape: 25 512 14 14 (2508800)
I1111 04:53:30.587664 11674 layer_factory.hpp:75] Creating layer inception_4c/1x1
I1111 04:53:30.587671 11674 net.cpp:99] Creating Layer inception_4c/1x1
I1111 04:53:30.587676 11674 net.cpp:453] inception_4c/1x1 <- inception_4b/output_inception_4b/output_0_split_0
I1111 04:53:30.587682 11674 net.cpp:409] inception_4c/1x1 -> inception_4c/1x1
I1111 04:53:30.587689 11674 net.cpp:131] Setting up inception_4c/1x1
I1111 04:53:30.590308 11674 net.cpp:140] Top shape: 25 128 14 14 (627200)
I1111 04:53:30.590322 11674 layer_factory.hpp:75] Creating layer inception_4c/relu_1x1
I1111 04:53:30.590332 11674 net.cpp:99] Creating Layer inception_4c/relu_1x1
I1111 04:53:30.590337 11674 net.cpp:453] inception_4c/relu_1x1 <- inception_4c/1x1
I1111 04:53:30.590342 11674 net.cpp:396] inception_4c/relu_1x1 -> inception_4c/1x1 (in-place)
I1111 04:53:30.590349 11674 net.cpp:131] Setting up inception_4c/relu_1x1
I1111 04:53:30.590433 11674 net.cpp:140] Top shape: 25 128 14 14 (627200)
I1111 04:53:30.590438 11674 layer_factory.hpp:75] Creating layer inception_4c/3x3_reduce
I1111 04:53:30.590448 11674 net.cpp:99] Creating Layer inception_4c/3x3_reduce
I1111 04:53:30.590452 11674 net.cpp:453] inception_4c/3x3_reduce <- inception_4b/output_inception_4b/output_0_split_1
I1111 04:53:30.590461 11674 net.cpp:409] inception_4c/3x3_reduce -> inception_4c/3x3_reduce
I1111 04:53:30.590468 11674 net.cpp:131] Setting up inception_4c/3x3_reduce
I1111 04:53:30.591949 11674 net.cpp:140] Top shape: 25 128 14 14 (627200)
I1111 04:53:30.591961 11674 layer_factory.hpp:75] Creating layer inception_4c/relu_3x3_reduce
I1111 04:53:30.591970 11674 net.cpp:99] Creating Layer inception_4c/relu_3x3_reduce
I1111 04:53:30.591975 11674 net.cpp:453] inception_4c/relu_3x3_reduce <- inception_4c/3x3_reduce
I1111 04:53:30.591980 11674 net.cpp:396] inception_4c/relu_3x3_reduce -> inception_4c/3x3_reduce (in-place)
I1111 04:53:30.591986 11674 net.cpp:131] Setting up inception_4c/relu_3x3_reduce
I1111 04:53:30.592064 11674 net.cpp:140] Top shape: 25 128 14 14 (627200)
I1111 04:53:30.592069 11674 layer_factory.hpp:75] Creating layer inception_4c/3x3
I1111 04:53:30.592082 11674 net.cpp:99] Creating Layer inception_4c/3x3
I1111 04:53:30.592085 11674 net.cpp:453] inception_4c/3x3 <- inception_4c/3x3_reduce
I1111 04:53:30.592092 11674 net.cpp:409] inception_4c/3x3 -> inception_4c/3x3
I1111 04:53:30.592098 11674 net.cpp:131] Setting up inception_4c/3x3
I1111 04:53:30.595645 11674 net.cpp:140] Top shape: 25 256 14 14 (1254400)
I1111 04:53:30.595670 11674 layer_factory.hpp:75] Creating layer inception_4c/relu_3x3
I1111 04:53:30.595677 11674 net.cpp:99] Creating Layer inception_4c/relu_3x3
I1111 04:53:30.595682 11674 net.cpp:453] inception_4c/relu_3x3 <- inception_4c/3x3
I1111 04:53:30.595690 11674 net.cpp:396] inception_4c/relu_3x3 -> inception_4c/3x3 (in-place)
I1111 04:53:30.595696 11674 net.cpp:131] Setting up inception_4c/relu_3x3
I1111 04:53:30.596068 11674 net.cpp:140] Top shape: 25 256 14 14 (1254400)
I1111 04:53:30.596077 11674 layer_factory.hpp:75] Creating layer inception_4c/5x5_reduce
I1111 04:53:30.596087 11674 net.cpp:99] Creating Layer inception_4c/5x5_reduce
I1111 04:53:30.596092 11674 net.cpp:453] inception_4c/5x5_reduce <- inception_4b/output_inception_4b/output_0_split_2
I1111 04:53:30.596101 11674 net.cpp:409] inception_4c/5x5_reduce -> inception_4c/5x5_reduce
I1111 04:53:30.596108 11674 net.cpp:131] Setting up inception_4c/5x5_reduce
I1111 04:53:30.596822 11674 net.cpp:140] Top shape: 25 24 14 14 (117600)
I1111 04:53:30.596833 11674 layer_factory.hpp:75] Creating layer inception_4c/relu_5x5_reduce
I1111 04:53:30.596843 11674 net.cpp:99] Creating Layer inception_4c/relu_5x5_reduce
I1111 04:53:30.596848 11674 net.cpp:453] inception_4c/relu_5x5_reduce <- inception_4c/5x5_reduce
I1111 04:53:30.596853 11674 net.cpp:396] inception_4c/relu_5x5_reduce -> inception_4c/5x5_reduce (in-place)
I1111 04:53:30.596859 11674 net.cpp:131] Setting up inception_4c/relu_5x5_reduce
I1111 04:53:30.596935 11674 net.cpp:140] Top shape: 25 24 14 14 (117600)
I1111 04:53:30.596940 11674 layer_factory.hpp:75] Creating layer inception_4c/5x5
I1111 04:53:30.596949 11674 net.cpp:99] Creating Layer inception_4c/5x5
I1111 04:53:30.596953 11674 net.cpp:453] inception_4c/5x5 <- inception_4c/5x5_reduce
I1111 04:53:30.596961 11674 net.cpp:409] inception_4c/5x5 -> inception_4c/5x5
I1111 04:53:30.596968 11674 net.cpp:131] Setting up inception_4c/5x5
I1111 04:53:30.597863 11674 net.cpp:140] Top shape: 25 64 14 14 (313600)
I1111 04:53:30.597888 11674 layer_factory.hpp:75] Creating layer inception_4c/relu_5x5
I1111 04:53:30.597899 11674 net.cpp:99] Creating Layer inception_4c/relu_5x5
I1111 04:53:30.597904 11674 net.cpp:453] inception_4c/relu_5x5 <- inception_4c/5x5
I1111 04:53:30.597909 11674 net.cpp:396] inception_4c/relu_5x5 -> inception_4c/5x5 (in-place)
I1111 04:53:30.597915 11674 net.cpp:131] Setting up inception_4c/relu_5x5
I1111 04:53:30.597991 11674 net.cpp:140] Top shape: 25 64 14 14 (313600)
I1111 04:53:30.597996 11674 layer_factory.hpp:75] Creating layer inception_4c/pool
I1111 04:53:30.598001 11674 layer_factory.cpp:55] CUDNN does not support padding or multiple tops. Using Caffe's own pooling layer.
I1111 04:53:30.598006 11674 net.cpp:99] Creating Layer inception_4c/pool
I1111 04:53:30.598008 11674 net.cpp:453] inception_4c/pool <- inception_4b/output_inception_4b/output_0_split_3
I1111 04:53:30.598016 11674 net.cpp:409] inception_4c/pool -> inception_4c/pool
I1111 04:53:30.598022 11674 net.cpp:131] Setting up inception_4c/pool
I1111 04:53:30.598029 11674 net.cpp:140] Top shape: 25 512 14 14 (2508800)
I1111 04:53:30.598032 11674 layer_factory.hpp:75] Creating layer inception_4c/pool_proj
I1111 04:53:30.598045 11674 net.cpp:99] Creating Layer inception_4c/pool_proj
I1111 04:53:30.598048 11674 net.cpp:453] inception_4c/pool_proj <- inception_4c/pool
I1111 04:53:30.598054 11674 net.cpp:409] inception_4c/pool_proj -> inception_4c/pool_proj
I1111 04:53:30.598060 11674 net.cpp:131] Setting up inception_4c/pool_proj
I1111 04:53:30.598920 11674 net.cpp:140] Top shape: 25 64 14 14 (313600)
I1111 04:53:30.598934 11674 layer_factory.hpp:75] Creating layer inception_4c/relu_pool_proj
I1111 04:53:30.598940 11674 net.cpp:99] Creating Layer inception_4c/relu_pool_proj
I1111 04:53:30.598945 11674 net.cpp:453] inception_4c/relu_pool_proj <- inception_4c/pool_proj
I1111 04:53:30.598953 11674 net.cpp:396] inception_4c/relu_pool_proj -> inception_4c/pool_proj (in-place)
I1111 04:53:30.598959 11674 net.cpp:131] Setting up inception_4c/relu_pool_proj
I1111 04:53:30.599331 11674 net.cpp:140] Top shape: 25 64 14 14 (313600)
I1111 04:53:30.599340 11674 layer_factory.hpp:75] Creating layer inception_4c/output
I1111 04:53:30.599347 11674 net.cpp:99] Creating Layer inception_4c/output
I1111 04:53:30.599351 11674 net.cpp:453] inception_4c/output <- inception_4c/1x1
I1111 04:53:30.599356 11674 net.cpp:453] inception_4c/output <- inception_4c/3x3
I1111 04:53:30.599360 11674 net.cpp:453] inception_4c/output <- inception_4c/5x5
I1111 04:53:30.599364 11674 net.cpp:453] inception_4c/output <- inception_4c/pool_proj
I1111 04:53:30.599370 11674 net.cpp:409] inception_4c/output -> inception_4c/output
I1111 04:53:30.599376 11674 net.cpp:131] Setting up inception_4c/output
I1111 04:53:30.599382 11674 net.cpp:140] Top shape: 25 512 14 14 (2508800)
I1111 04:53:30.599386 11674 layer_factory.hpp:75] Creating layer inception_4c/output_inception_4c/output_0_split
I1111 04:53:30.599391 11674 net.cpp:99] Creating Layer inception_4c/output_inception_4c/output_0_split
I1111 04:53:30.599395 11674 net.cpp:453] inception_4c/output_inception_4c/output_0_split <- inception_4c/output
I1111 04:53:30.599402 11674 net.cpp:409] inception_4c/output_inception_4c/output_0_split -> inception_4c/output_inception_4c/output_0_split_0
I1111 04:53:30.599408 11674 net.cpp:409] inception_4c/output_inception_4c/output_0_split -> inception_4c/output_inception_4c/output_0_split_1
I1111 04:53:30.599416 11674 net.cpp:409] inception_4c/output_inception_4c/output_0_split -> inception_4c/output_inception_4c/output_0_split_2
I1111 04:53:30.599421 11674 net.cpp:409] inception_4c/output_inception_4c/output_0_split -> inception_4c/output_inception_4c/output_0_split_3
I1111 04:53:30.599427 11674 net.cpp:131] Setting up inception_4c/output_inception_4c/output_0_split
I1111 04:53:30.599434 11674 net.cpp:140] Top shape: 25 512 14 14 (2508800)
I1111 04:53:30.599438 11674 net.cpp:140] Top shape: 25 512 14 14 (2508800)
I1111 04:53:30.599442 11674 net.cpp:140] Top shape: 25 512 14 14 (2508800)
I1111 04:53:30.599458 11674 net.cpp:140] Top shape: 25 512 14 14 (2508800)
I1111 04:53:30.599462 11674 layer_factory.hpp:75] Creating layer inception_4d/1x1
I1111 04:53:30.599469 11674 net.cpp:99] Creating Layer inception_4d/1x1
I1111 04:53:30.599473 11674 net.cpp:453] inception_4d/1x1 <- inception_4c/output_inception_4c/output_0_split_0
I1111 04:53:30.599481 11674 net.cpp:409] inception_4d/1x1 -> inception_4d/1x1
I1111 04:53:30.599488 11674 net.cpp:131] Setting up inception_4d/1x1
I1111 04:53:30.600528 11674 net.cpp:140] Top shape: 25 112 14 14 (548800)
I1111 04:53:30.600539 11674 layer_factory.hpp:75] Creating layer inception_4d/relu_1x1
I1111 04:53:30.600546 11674 net.cpp:99] Creating Layer inception_4d/relu_1x1
I1111 04:53:30.600551 11674 net.cpp:453] inception_4d/relu_1x1 <- inception_4d/1x1
I1111 04:53:30.600556 11674 net.cpp:396] inception_4d/relu_1x1 -> inception_4d/1x1 (in-place)
I1111 04:53:30.600563 11674 net.cpp:131] Setting up inception_4d/relu_1x1
I1111 04:53:30.600639 11674 net.cpp:140] Top shape: 25 112 14 14 (548800)
I1111 04:53:30.600644 11674 layer_factory.hpp:75] Creating layer inception_4d/3x3_reduce
I1111 04:53:30.600651 11674 net.cpp:99] Creating Layer inception_4d/3x3_reduce
I1111 04:53:30.600656 11674 net.cpp:453] inception_4d/3x3_reduce <- inception_4c/output_inception_4c/output_0_split_1
I1111 04:53:30.600663 11674 net.cpp:409] inception_4d/3x3_reduce -> inception_4d/3x3_reduce
I1111 04:53:30.600672 11674 net.cpp:131] Setting up inception_4d/3x3_reduce
I1111 04:53:30.602569 11674 net.cpp:140] Top shape: 25 144 14 14 (705600)
I1111 04:53:30.602582 11674 layer_factory.hpp:75] Creating layer inception_4d/relu_3x3_reduce
I1111 04:53:30.602591 11674 net.cpp:99] Creating Layer inception_4d/relu_3x3_reduce
I1111 04:53:30.602596 11674 net.cpp:453] inception_4d/relu_3x3_reduce <- inception_4d/3x3_reduce
I1111 04:53:30.602602 11674 net.cpp:396] inception_4d/relu_3x3_reduce -> inception_4d/3x3_reduce (in-place)
I1111 04:53:30.602608 11674 net.cpp:131] Setting up inception_4d/relu_3x3_reduce
I1111 04:53:30.602684 11674 net.cpp:140] Top shape: 25 144 14 14 (705600)
I1111 04:53:30.602689 11674 layer_factory.hpp:75] Creating layer inception_4d/3x3
I1111 04:53:30.602696 11674 net.cpp:99] Creating Layer inception_4d/3x3
I1111 04:53:30.602699 11674 net.cpp:453] inception_4d/3x3 <- inception_4d/3x3_reduce
I1111 04:53:30.602710 11674 net.cpp:409] inception_4d/3x3 -> inception_4d/3x3
I1111 04:53:30.602718 11674 net.cpp:131] Setting up inception_4d/3x3
I1111 04:53:30.606942 11674 net.cpp:140] Top shape: 25 288 14 14 (1411200)
I1111 04:53:30.606956 11674 layer_factory.hpp:75] Creating layer inception_4d/relu_3x3
I1111 04:53:30.606966 11674 net.cpp:99] Creating Layer inception_4d/relu_3x3
I1111 04:53:30.606969 11674 net.cpp:453] inception_4d/relu_3x3 <- inception_4d/3x3
I1111 04:53:30.606976 11674 net.cpp:396] inception_4d/relu_3x3 -> inception_4d/3x3 (in-place)
I1111 04:53:30.606981 11674 net.cpp:131] Setting up inception_4d/relu_3x3
I1111 04:53:30.607058 11674 net.cpp:140] Top shape: 25 288 14 14 (1411200)
I1111 04:53:30.607062 11674 layer_factory.hpp:75] Creating layer inception_4d/5x5_reduce
I1111 04:53:30.607072 11674 net.cpp:99] Creating Layer inception_4d/5x5_reduce
I1111 04:53:30.607076 11674 net.cpp:453] inception_4d/5x5_reduce <- inception_4c/output_inception_4c/output_0_split_2
I1111 04:53:30.607084 11674 net.cpp:409] inception_4d/5x5_reduce -> inception_4d/5x5_reduce
I1111 04:53:30.607091 11674 net.cpp:131] Setting up inception_4d/5x5_reduce
I1111 04:53:30.608551 11674 net.cpp:140] Top shape: 25 32 14 14 (156800)
I1111 04:53:30.608562 11674 layer_factory.hpp:75] Creating layer inception_4d/relu_5x5_reduce
I1111 04:53:30.608569 11674 net.cpp:99] Creating Layer inception_4d/relu_5x5_reduce
I1111 04:53:30.608574 11674 net.cpp:453] inception_4d/relu_5x5_reduce <- inception_4d/5x5_reduce
I1111 04:53:30.608579 11674 net.cpp:396] inception_4d/relu_5x5_reduce -> inception_4d/5x5_reduce (in-place)
I1111 04:53:30.608587 11674 net.cpp:131] Setting up inception_4d/relu_5x5_reduce
I1111 04:53:30.608965 11674 net.cpp:140] Top shape: 25 32 14 14 (156800)
I1111 04:53:30.608986 11674 layer_factory.hpp:75] Creating layer inception_4d/5x5
I1111 04:53:30.608994 11674 net.cpp:99] Creating Layer inception_4d/5x5
I1111 04:53:30.608999 11674 net.cpp:453] inception_4d/5x5 <- inception_4d/5x5_reduce
I1111 04:53:30.609009 11674 net.cpp:409] inception_4d/5x5 -> inception_4d/5x5
I1111 04:53:30.609016 11674 net.cpp:131] Setting up inception_4d/5x5
I1111 04:53:30.610734 11674 net.cpp:140] Top shape: 25 64 14 14 (313600)
I1111 04:53:30.610748 11674 layer_factory.hpp:75] Creating layer inception_4d/relu_5x5
I1111 04:53:30.610756 11674 net.cpp:99] Creating Layer inception_4d/relu_5x5
I1111 04:53:30.610761 11674 net.cpp:453] inception_4d/relu_5x5 <- inception_4d/5x5
I1111 04:53:30.610766 11674 net.cpp:396] inception_4d/relu_5x5 -> inception_4d/5x5 (in-place)
I1111 04:53:30.610772 11674 net.cpp:131] Setting up inception_4d/relu_5x5
I1111 04:53:30.610851 11674 net.cpp:140] Top shape: 25 64 14 14 (313600)
I1111 04:53:30.610857 11674 layer_factory.hpp:75] Creating layer inception_4d/pool
I1111 04:53:30.610860 11674 layer_factory.cpp:55] CUDNN does not support padding or multiple tops. Using Caffe's own pooling layer.
I1111 04:53:30.610865 11674 net.cpp:99] Creating Layer inception_4d/pool
I1111 04:53:30.610869 11674 net.cpp:453] inception_4d/pool <- inception_4c/output_inception_4c/output_0_split_3
I1111 04:53:30.610877 11674 net.cpp:409] inception_4d/pool -> inception_4d/pool
I1111 04:53:30.610883 11674 net.cpp:131] Setting up inception_4d/pool
I1111 04:53:30.610890 11674 net.cpp:140] Top shape: 25 512 14 14 (2508800)
I1111 04:53:30.610893 11674 layer_factory.hpp:75] Creating layer inception_4d/pool_proj
I1111 04:53:30.610900 11674 net.cpp:99] Creating Layer inception_4d/pool_proj
I1111 04:53:30.610904 11674 net.cpp:453] inception_4d/pool_proj <- inception_4d/pool
I1111 04:53:30.610911 11674 net.cpp:409] inception_4d/pool_proj -> inception_4d/pool_proj
I1111 04:53:30.610918 11674 net.cpp:131] Setting up inception_4d/pool_proj
I1111 04:53:30.611794 11674 net.cpp:140] Top shape: 25 64 14 14 (313600)
I1111 04:53:30.611806 11674 layer_factory.hpp:75] Creating layer inception_4d/relu_pool_proj
I1111 04:53:30.611814 11674 net.cpp:99] Creating Layer inception_4d/relu_pool_proj
I1111 04:53:30.611819 11674 net.cpp:453] inception_4d/relu_pool_proj <- inception_4d/pool_proj
I1111 04:53:30.611824 11674 net.cpp:396] inception_4d/relu_pool_proj -> inception_4d/pool_proj (in-place)
I1111 04:53:30.611829 11674 net.cpp:131] Setting up inception_4d/relu_pool_proj
I1111 04:53:30.611904 11674 net.cpp:140] Top shape: 25 64 14 14 (313600)
I1111 04:53:30.611909 11674 layer_factory.hpp:75] Creating layer inception_4d/output
I1111 04:53:30.611914 11674 net.cpp:99] Creating Layer inception_4d/output
I1111 04:53:30.611918 11674 net.cpp:453] inception_4d/output <- inception_4d/1x1
I1111 04:53:30.611923 11674 net.cpp:453] inception_4d/output <- inception_4d/3x3
I1111 04:53:30.611927 11674 net.cpp:453] inception_4d/output <- inception_4d/5x5
I1111 04:53:30.611932 11674 net.cpp:453] inception_4d/output <- inception_4d/pool_proj
I1111 04:53:30.611937 11674 net.cpp:409] inception_4d/output -> inception_4d/output
I1111 04:53:30.611943 11674 net.cpp:131] Setting up inception_4d/output
I1111 04:53:30.611948 11674 net.cpp:140] Top shape: 25 528 14 14 (2587200)
I1111 04:53:30.611951 11674 layer_factory.hpp:75] Creating layer inception_4d/output_inception_4d/output_0_split
I1111 04:53:30.611959 11674 net.cpp:99] Creating Layer inception_4d/output_inception_4d/output_0_split
I1111 04:53:30.611963 11674 net.cpp:453] inception_4d/output_inception_4d/output_0_split <- inception_4d/output
I1111 04:53:30.611968 11674 net.cpp:409] inception_4d/output_inception_4d/output_0_split -> inception_4d/output_inception_4d/output_0_split_0
I1111 04:53:30.611974 11674 net.cpp:409] inception_4d/output_inception_4d/output_0_split -> inception_4d/output_inception_4d/output_0_split_1
I1111 04:53:30.611982 11674 net.cpp:409] inception_4d/output_inception_4d/output_0_split -> inception_4d/output_inception_4d/output_0_split_2
I1111 04:53:30.612001 11674 net.cpp:409] inception_4d/output_inception_4d/output_0_split -> inception_4d/output_inception_4d/output_0_split_3
I1111 04:53:30.612009 11674 net.cpp:409] inception_4d/output_inception_4d/output_0_split -> inception_4d/output_inception_4d/output_0_split_4
I1111 04:53:30.612013 11674 net.cpp:131] Setting up inception_4d/output_inception_4d/output_0_split
I1111 04:53:30.612020 11674 net.cpp:140] Top shape: 25 528 14 14 (2587200)
I1111 04:53:30.612025 11674 net.cpp:140] Top shape: 25 528 14 14 (2587200)
I1111 04:53:30.612027 11674 net.cpp:140] Top shape: 25 528 14 14 (2587200)
I1111 04:53:30.612031 11674 net.cpp:140] Top shape: 25 528 14 14 (2587200)
I1111 04:53:30.612035 11674 net.cpp:140] Top shape: 25 528 14 14 (2587200)
I1111 04:53:30.612038 11674 layer_factory.hpp:75] Creating layer loss2/ave_pool
I1111 04:53:30.612045 11674 net.cpp:99] Creating Layer loss2/ave_pool
I1111 04:53:30.612047 11674 net.cpp:453] loss2/ave_pool <- inception_4d/output_inception_4d/output_0_split_0
I1111 04:53:30.612056 11674 net.cpp:409] loss2/ave_pool -> loss2/ave_pool
I1111 04:53:30.612062 11674 net.cpp:131] Setting up loss2/ave_pool
I1111 04:53:30.612135 11674 net.cpp:140] Top shape: 25 528 4 4 (211200)
I1111 04:53:30.612140 11674 layer_factory.hpp:75] Creating layer loss2/conv
I1111 04:53:30.612149 11674 net.cpp:99] Creating Layer loss2/conv
I1111 04:53:30.612154 11674 net.cpp:453] loss2/conv <- loss2/ave_pool
I1111 04:53:30.612159 11674 net.cpp:409] loss2/conv -> loss2/conv
I1111 04:53:30.612165 11674 net.cpp:131] Setting up loss2/conv
I1111 04:53:30.613265 11674 net.cpp:140] Top shape: 25 128 4 4 (51200)
I1111 04:53:30.613276 11674 layer_factory.hpp:75] Creating layer loss2/relu_conv
I1111 04:53:30.613283 11674 net.cpp:99] Creating Layer loss2/relu_conv
I1111 04:53:30.613287 11674 net.cpp:453] loss2/relu_conv <- loss2/conv
I1111 04:53:30.613292 11674 net.cpp:396] loss2/relu_conv -> loss2/conv (in-place)
I1111 04:53:30.613298 11674 net.cpp:131] Setting up loss2/relu_conv
I1111 04:53:30.613670 11674 net.cpp:140] Top shape: 25 128 4 4 (51200)
I1111 04:53:30.613678 11674 layer_factory.hpp:75] Creating layer loss2/fc
I1111 04:53:30.613688 11674 net.cpp:99] Creating Layer loss2/fc
I1111 04:53:30.613692 11674 net.cpp:453] loss2/fc <- loss2/conv
I1111 04:53:30.613700 11674 net.cpp:409] loss2/fc -> loss2/fc
I1111 04:53:30.613708 11674 net.cpp:131] Setting up loss2/fc
I1111 04:53:30.632587 11674 net.cpp:140] Top shape: 25 1024 (25600)
I1111 04:53:30.632601 11674 layer_factory.hpp:75] Creating layer loss2/relu_fc
I1111 04:53:30.632608 11674 net.cpp:99] Creating Layer loss2/relu_fc
I1111 04:53:30.632612 11674 net.cpp:453] loss2/relu_fc <- loss2/fc
I1111 04:53:30.632619 11674 net.cpp:396] loss2/relu_fc -> loss2/fc (in-place)
I1111 04:53:30.632625 11674 net.cpp:131] Setting up loss2/relu_fc
I1111 04:53:30.632704 11674 net.cpp:140] Top shape: 25 1024 (25600)
I1111 04:53:30.632709 11674 layer_factory.hpp:75] Creating layer loss2/drop_fc
I1111 04:53:30.632716 11674 net.cpp:99] Creating Layer loss2/drop_fc
I1111 04:53:30.632720 11674 net.cpp:453] loss2/drop_fc <- loss2/fc
I1111 04:53:30.632725 11674 net.cpp:396] loss2/drop_fc -> loss2/fc (in-place)
I1111 04:53:30.632730 11674 net.cpp:131] Setting up loss2/drop_fc
I1111 04:53:30.632735 11674 net.cpp:140] Top shape: 25 1024 (25600)
I1111 04:53:30.632738 11674 layer_factory.hpp:75] Creating layer loss2/classifier
I1111 04:53:30.632745 11674 net.cpp:99] Creating Layer loss2/classifier
I1111 04:53:30.632748 11674 net.cpp:453] loss2/classifier <- loss2/fc
I1111 04:53:30.632753 11674 net.cpp:409] loss2/classifier -> loss2/classifier
I1111 04:53:30.632761 11674 net.cpp:131] Setting up loss2/classifier
I1111 04:53:30.636134 11674 net.cpp:140] Top shape: 25 333 (8325)
I1111 04:53:30.636147 11674 layer_factory.hpp:75] Creating layer loss2/classifier_loss2/classifier_0_split
I1111 04:53:30.636153 11674 net.cpp:99] Creating Layer loss2/classifier_loss2/classifier_0_split
I1111 04:53:30.636158 11674 net.cpp:453] loss2/classifier_loss2/classifier_0_split <- loss2/classifier
I1111 04:53:30.636178 11674 net.cpp:409] loss2/classifier_loss2/classifier_0_split -> loss2/classifier_loss2/classifier_0_split_0
I1111 04:53:30.636186 11674 net.cpp:409] loss2/classifier_loss2/classifier_0_split -> loss2/classifier_loss2/classifier_0_split_1
I1111 04:53:30.636193 11674 net.cpp:409] loss2/classifier_loss2/classifier_0_split -> loss2/classifier_loss2/classifier_0_split_2
I1111 04:53:30.636198 11674 net.cpp:131] Setting up loss2/classifier_loss2/classifier_0_split
I1111 04:53:30.636204 11674 net.cpp:140] Top shape: 25 333 (8325)
I1111 04:53:30.636209 11674 net.cpp:140] Top shape: 25 333 (8325)
I1111 04:53:30.636212 11674 net.cpp:140] Top shape: 25 333 (8325)
I1111 04:53:30.636215 11674 layer_factory.hpp:75] Creating layer inception_4e/1x1
I1111 04:53:30.636225 11674 net.cpp:99] Creating Layer inception_4e/1x1
I1111 04:53:30.636229 11674 net.cpp:453] inception_4e/1x1 <- inception_4d/output_inception_4d/output_0_split_1
I1111 04:53:30.636235 11674 net.cpp:409] inception_4e/1x1 -> inception_4e/1x1
I1111 04:53:30.636241 11674 net.cpp:131] Setting up inception_4e/1x1
I1111 04:53:30.638537 11674 net.cpp:140] Top shape: 25 256 14 14 (1254400)
I1111 04:53:30.638550 11674 layer_factory.hpp:75] Creating layer inception_4e/relu_1x1
I1111 04:53:30.638576 11674 net.cpp:99] Creating Layer inception_4e/relu_1x1
I1111 04:53:30.638581 11674 net.cpp:453] inception_4e/relu_1x1 <- inception_4e/1x1
I1111 04:53:30.638586 11674 net.cpp:396] inception_4e/relu_1x1 -> inception_4e/1x1 (in-place)
I1111 04:53:30.638592 11674 net.cpp:131] Setting up inception_4e/relu_1x1
I1111 04:53:30.638665 11674 net.cpp:140] Top shape: 25 256 14 14 (1254400)
I1111 04:53:30.638671 11674 layer_factory.hpp:75] Creating layer inception_4e/3x3_reduce
I1111 04:53:30.638680 11674 net.cpp:99] Creating Layer inception_4e/3x3_reduce
I1111 04:53:30.638684 11674 net.cpp:453] inception_4e/3x3_reduce <- inception_4d/output_inception_4d/output_0_split_2
I1111 04:53:30.638692 11674 net.cpp:409] inception_4e/3x3_reduce -> inception_4e/3x3_reduce
I1111 04:53:30.638700 11674 net.cpp:131] Setting up inception_4e/3x3_reduce
I1111 04:53:30.639914 11674 net.cpp:140] Top shape: 25 160 14 14 (784000)
I1111 04:53:30.639925 11674 layer_factory.hpp:75] Creating layer inception_4e/relu_3x3_reduce
I1111 04:53:30.639931 11674 net.cpp:99] Creating Layer inception_4e/relu_3x3_reduce
I1111 04:53:30.639935 11674 net.cpp:453] inception_4e/relu_3x3_reduce <- inception_4e/3x3_reduce
I1111 04:53:30.639946 11674 net.cpp:396] inception_4e/relu_3x3_reduce -> inception_4e/3x3_reduce (in-place)
I1111 04:53:30.639953 11674 net.cpp:131] Setting up inception_4e/relu_3x3_reduce
I1111 04:53:30.640027 11674 net.cpp:140] Top shape: 25 160 14 14 (784000)
I1111 04:53:30.640033 11674 layer_factory.hpp:75] Creating layer inception_4e/3x3
I1111 04:53:30.640041 11674 net.cpp:99] Creating Layer inception_4e/3x3
I1111 04:53:30.640045 11674 net.cpp:453] inception_4e/3x3 <- inception_4e/3x3_reduce
I1111 04:53:30.640053 11674 net.cpp:409] inception_4e/3x3 -> inception_4e/3x3
I1111 04:53:30.640060 11674 net.cpp:131] Setting up inception_4e/3x3
I1111 04:53:30.645022 11674 net.cpp:140] Top shape: 25 320 14 14 (1568000)
I1111 04:53:30.645035 11674 layer_factory.hpp:75] Creating layer inception_4e/relu_3x3
I1111 04:53:30.645042 11674 net.cpp:99] Creating Layer inception_4e/relu_3x3
I1111 04:53:30.645048 11674 net.cpp:453] inception_4e/relu_3x3 <- inception_4e/3x3
I1111 04:53:30.645053 11674 net.cpp:396] inception_4e/relu_3x3 -> inception_4e/3x3 (in-place)
I1111 04:53:30.645059 11674 net.cpp:131] Setting up inception_4e/relu_3x3
I1111 04:53:30.645429 11674 net.cpp:140] Top shape: 25 320 14 14 (1568000)
I1111 04:53:30.645437 11674 layer_factory.hpp:75] Creating layer inception_4e/5x5_reduce
I1111 04:53:30.645445 11674 net.cpp:99] Creating Layer inception_4e/5x5_reduce
I1111 04:53:30.645449 11674 net.cpp:453] inception_4e/5x5_reduce <- inception_4d/output_inception_4d/output_0_split_3
I1111 04:53:30.645458 11674 net.cpp:409] inception_4e/5x5_reduce -> inception_4e/5x5_reduce
I1111 04:53:30.645467 11674 net.cpp:131] Setting up inception_4e/5x5_reduce
I1111 04:53:30.646288 11674 net.cpp:140] Top shape: 25 32 14 14 (156800)
I1111 04:53:30.646301 11674 layer_factory.hpp:75] Creating layer inception_4e/relu_5x5_reduce
I1111 04:53:30.646307 11674 net.cpp:99] Creating Layer inception_4e/relu_5x5_reduce
I1111 04:53:30.646311 11674 net.cpp:453] inception_4e/relu_5x5_reduce <- inception_4e/5x5_reduce
I1111 04:53:30.646317 11674 net.cpp:396] inception_4e/relu_5x5_reduce -> inception_4e/5x5_reduce (in-place)
I1111 04:53:30.646323 11674 net.cpp:131] Setting up inception_4e/relu_5x5_reduce
I1111 04:53:30.646394 11674 net.cpp:140] Top shape: 25 32 14 14 (156800)
I1111 04:53:30.646399 11674 layer_factory.hpp:75] Creating layer inception_4e/5x5
I1111 04:53:30.646406 11674 net.cpp:99] Creating Layer inception_4e/5x5
I1111 04:53:30.646410 11674 net.cpp:453] inception_4e/5x5 <- inception_4e/5x5_reduce
I1111 04:53:30.646416 11674 net.cpp:409] inception_4e/5x5 -> inception_4e/5x5
I1111 04:53:30.646430 11674 net.cpp:131] Setting up inception_4e/5x5
I1111 04:53:30.647778 11674 net.cpp:140] Top shape: 25 128 14 14 (627200)
I1111 04:53:30.647790 11674 layer_factory.hpp:75] Creating layer inception_4e/relu_5x5
I1111 04:53:30.647796 11674 net.cpp:99] Creating Layer inception_4e/relu_5x5
I1111 04:53:30.647802 11674 net.cpp:453] inception_4e/relu_5x5 <- inception_4e/5x5
I1111 04:53:30.647809 11674 net.cpp:396] inception_4e/relu_5x5 -> inception_4e/5x5 (in-place)
I1111 04:53:30.647814 11674 net.cpp:131] Setting up inception_4e/relu_5x5
I1111 04:53:30.647886 11674 net.cpp:140] Top shape: 25 128 14 14 (627200)
I1111 04:53:30.647891 11674 layer_factory.hpp:75] Creating layer inception_4e/pool
I1111 04:53:30.647896 11674 layer_factory.cpp:55] CUDNN does not support padding or multiple tops. Using Caffe's own pooling layer.
I1111 04:53:30.647902 11674 net.cpp:99] Creating Layer inception_4e/pool
I1111 04:53:30.647907 11674 net.cpp:453] inception_4e/pool <- inception_4d/output_inception_4d/output_0_split_4
I1111 04:53:30.647914 11674 net.cpp:409] inception_4e/pool -> inception_4e/pool
I1111 04:53:30.647920 11674 net.cpp:131] Setting up inception_4e/pool
I1111 04:53:30.647927 11674 net.cpp:140] Top shape: 25 528 14 14 (2587200)
I1111 04:53:30.647930 11674 layer_factory.hpp:75] Creating layer inception_4e/pool_proj
I1111 04:53:30.647938 11674 net.cpp:99] Creating Layer inception_4e/pool_proj
I1111 04:53:30.647941 11674 net.cpp:453] inception_4e/pool_proj <- inception_4e/pool
I1111 04:53:30.647948 11674 net.cpp:409] inception_4e/pool_proj -> inception_4e/pool_proj
I1111 04:53:30.647955 11674 net.cpp:131] Setting up inception_4e/pool_proj
I1111 04:53:30.649752 11674 net.cpp:140] Top shape: 25 128 14 14 (627200)
I1111 04:53:30.649765 11674 layer_factory.hpp:75] Creating layer inception_4e/relu_pool_proj
I1111 04:53:30.649775 11674 net.cpp:99] Creating Layer inception_4e/relu_pool_proj
I1111 04:53:30.649780 11674 net.cpp:453] inception_4e/relu_pool_proj <- inception_4e/pool_proj
I1111 04:53:30.649785 11674 net.cpp:396] inception_4e/relu_pool_proj -> inception_4e/pool_proj (in-place)
I1111 04:53:30.649791 11674 net.cpp:131] Setting up inception_4e/relu_pool_proj
I1111 04:53:30.650159 11674 net.cpp:140] Top shape: 25 128 14 14 (627200)
I1111 04:53:30.650167 11674 layer_factory.hpp:75] Creating layer inception_4e/output
I1111 04:53:30.650174 11674 net.cpp:99] Creating Layer inception_4e/output
I1111 04:53:30.650178 11674 net.cpp:453] inception_4e/output <- inception_4e/1x1
I1111 04:53:30.650183 11674 net.cpp:453] inception_4e/output <- inception_4e/3x3
I1111 04:53:30.650187 11674 net.cpp:453] inception_4e/output <- inception_4e/5x5
I1111 04:53:30.650192 11674 net.cpp:453] inception_4e/output <- inception_4e/pool_proj
I1111 04:53:30.650198 11674 net.cpp:409] inception_4e/output -> inception_4e/output
I1111 04:53:30.650205 11674 net.cpp:131] Setting up inception_4e/output
I1111 04:53:30.650212 11674 net.cpp:140] Top shape: 25 832 14 14 (4076800)
I1111 04:53:30.650215 11674 layer_factory.hpp:75] Creating layer pool4/3x3_s2
I1111 04:53:30.650221 11674 net.cpp:99] Creating Layer pool4/3x3_s2
I1111 04:53:30.650238 11674 net.cpp:453] pool4/3x3_s2 <- inception_4e/output
I1111 04:53:30.650243 11674 net.cpp:409] pool4/3x3_s2 -> pool4/3x3_s2
I1111 04:53:30.650249 11674 net.cpp:131] Setting up pool4/3x3_s2
I1111 04:53:30.650321 11674 net.cpp:140] Top shape: 25 832 7 7 (1019200)
I1111 04:53:30.650326 11674 layer_factory.hpp:75] Creating layer pool4/3x3_s2_pool4/3x3_s2_0_split
I1111 04:53:30.650332 11674 net.cpp:99] Creating Layer pool4/3x3_s2_pool4/3x3_s2_0_split
I1111 04:53:30.650336 11674 net.cpp:453] pool4/3x3_s2_pool4/3x3_s2_0_split <- pool4/3x3_s2
I1111 04:53:30.650343 11674 net.cpp:409] pool4/3x3_s2_pool4/3x3_s2_0_split -> pool4/3x3_s2_pool4/3x3_s2_0_split_0
I1111 04:53:30.650349 11674 net.cpp:409] pool4/3x3_s2_pool4/3x3_s2_0_split -> pool4/3x3_s2_pool4/3x3_s2_0_split_1
I1111 04:53:30.650355 11674 net.cpp:409] pool4/3x3_s2_pool4/3x3_s2_0_split -> pool4/3x3_s2_pool4/3x3_s2_0_split_2
I1111 04:53:30.650378 11674 net.cpp:409] pool4/3x3_s2_pool4/3x3_s2_0_split -> pool4/3x3_s2_pool4/3x3_s2_0_split_3
I1111 04:53:30.650383 11674 net.cpp:131] Setting up pool4/3x3_s2_pool4/3x3_s2_0_split
I1111 04:53:30.650390 11674 net.cpp:140] Top shape: 25 832 7 7 (1019200)
I1111 04:53:30.650394 11674 net.cpp:140] Top shape: 25 832 7 7 (1019200)
I1111 04:53:30.650400 11674 net.cpp:140] Top shape: 25 832 7 7 (1019200)
I1111 04:53:30.650404 11674 net.cpp:140] Top shape: 25 832 7 7 (1019200)
I1111 04:53:30.650408 11674 layer_factory.hpp:75] Creating layer inception_5a/1x1
I1111 04:53:30.650415 11674 net.cpp:99] Creating Layer inception_5a/1x1
I1111 04:53:30.650424 11674 net.cpp:453] inception_5a/1x1 <- pool4/3x3_s2_pool4/3x3_s2_0_split_0
I1111 04:53:30.650434 11674 net.cpp:409] inception_5a/1x1 -> inception_5a/1x1
I1111 04:53:30.650441 11674 net.cpp:131] Setting up inception_5a/1x1
I1111 04:53:30.653303 11674 net.cpp:140] Top shape: 25 256 7 7 (313600)
I1111 04:53:30.653316 11674 layer_factory.hpp:75] Creating layer inception_5a/relu_1x1
I1111 04:53:30.653322 11674 net.cpp:99] Creating Layer inception_5a/relu_1x1
I1111 04:53:30.653326 11674 net.cpp:453] inception_5a/relu_1x1 <- inception_5a/1x1
I1111 04:53:30.653334 11674 net.cpp:396] inception_5a/relu_1x1 -> inception_5a/1x1 (in-place)
I1111 04:53:30.653342 11674 net.cpp:131] Setting up inception_5a/relu_1x1
I1111 04:53:30.653414 11674 net.cpp:140] Top shape: 25 256 7 7 (313600)
I1111 04:53:30.653420 11674 layer_factory.hpp:75] Creating layer inception_5a/3x3_reduce
I1111 04:53:30.653427 11674 net.cpp:99] Creating Layer inception_5a/3x3_reduce
I1111 04:53:30.653430 11674 net.cpp:453] inception_5a/3x3_reduce <- pool4/3x3_s2_pool4/3x3_s2_0_split_1
I1111 04:53:30.653439 11674 net.cpp:409] inception_5a/3x3_reduce -> inception_5a/3x3_reduce
I1111 04:53:30.653445 11674 net.cpp:131] Setting up inception_5a/3x3_reduce
I1111 04:53:30.655028 11674 net.cpp:140] Top shape: 25 160 7 7 (196000)
I1111 04:53:30.655040 11674 layer_factory.hpp:75] Creating layer inception_5a/relu_3x3_reduce
I1111 04:53:30.655047 11674 net.cpp:99] Creating Layer inception_5a/relu_3x3_reduce
I1111 04:53:30.655051 11674 net.cpp:453] inception_5a/relu_3x3_reduce <- inception_5a/3x3_reduce
I1111 04:53:30.655057 11674 net.cpp:396] inception_5a/relu_3x3_reduce -> inception_5a/3x3_reduce (in-place)
I1111 04:53:30.655063 11674 net.cpp:131] Setting up inception_5a/relu_3x3_reduce
I1111 04:53:30.655134 11674 net.cpp:140] Top shape: 25 160 7 7 (196000)
I1111 04:53:30.655139 11674 layer_factory.hpp:75] Creating layer inception_5a/3x3
I1111 04:53:30.655146 11674 net.cpp:99] Creating Layer inception_5a/3x3
I1111 04:53:30.655150 11674 net.cpp:453] inception_5a/3x3 <- inception_5a/3x3_reduce
I1111 04:53:30.655158 11674 net.cpp:409] inception_5a/3x3 -> inception_5a/3x3
I1111 04:53:30.655164 11674 net.cpp:131] Setting up inception_5a/3x3
I1111 04:53:30.660105 11674 net.cpp:140] Top shape: 25 320 7 7 (392000)
I1111 04:53:30.660117 11674 layer_factory.hpp:75] Creating layer inception_5a/relu_3x3
I1111 04:53:30.660127 11674 net.cpp:99] Creating Layer inception_5a/relu_3x3
I1111 04:53:30.660131 11674 net.cpp:453] inception_5a/relu_3x3 <- inception_5a/3x3
I1111 04:53:30.660150 11674 net.cpp:396] inception_5a/relu_3x3 -> inception_5a/3x3 (in-place)
I1111 04:53:30.660156 11674 net.cpp:131] Setting up inception_5a/relu_3x3
I1111 04:53:30.660531 11674 net.cpp:140] Top shape: 25 320 7 7 (392000)
I1111 04:53:30.660540 11674 layer_factory.hpp:75] Creating layer inception_5a/5x5_reduce
I1111 04:53:30.660550 11674 net.cpp:99] Creating Layer inception_5a/5x5_reduce
I1111 04:53:30.660554 11674 net.cpp:453] inception_5a/5x5_reduce <- pool4/3x3_s2_pool4/3x3_s2_0_split_2
I1111 04:53:30.660562 11674 net.cpp:409] inception_5a/5x5_reduce -> inception_5a/5x5_reduce
I1111 04:53:30.660569 11674 net.cpp:131] Setting up inception_5a/5x5_reduce
I1111 04:53:30.661373 11674 net.cpp:140] Top shape: 25 32 7 7 (39200)
I1111 04:53:30.661386 11674 layer_factory.hpp:75] Creating layer inception_5a/relu_5x5_reduce
I1111 04:53:30.661393 11674 net.cpp:99] Creating Layer inception_5a/relu_5x5_reduce
I1111 04:53:30.661398 11674 net.cpp:453] inception_5a/relu_5x5_reduce <- inception_5a/5x5_reduce
I1111 04:53:30.661403 11674 net.cpp:396] inception_5a/relu_5x5_reduce -> inception_5a/5x5_reduce (in-place)
I1111 04:53:30.661409 11674 net.cpp:131] Setting up inception_5a/relu_5x5_reduce
I1111 04:53:30.661481 11674 net.cpp:140] Top shape: 25 32 7 7 (39200)
I1111 04:53:30.661489 11674 layer_factory.hpp:75] Creating layer inception_5a/5x5
I1111 04:53:30.661499 11674 net.cpp:99] Creating Layer inception_5a/5x5
I1111 04:53:30.661504 11674 net.cpp:453] inception_5a/5x5 <- inception_5a/5x5_reduce
I1111 04:53:30.661509 11674 net.cpp:409] inception_5a/5x5 -> inception_5a/5x5
I1111 04:53:30.661516 11674 net.cpp:131] Setting up inception_5a/5x5
I1111 04:53:30.663568 11674 net.cpp:140] Top shape: 25 128 7 7 (156800)
I1111 04:53:30.663580 11674 layer_factory.hpp:75] Creating layer inception_5a/relu_5x5
I1111 04:53:30.663589 11674 net.cpp:99] Creating Layer inception_5a/relu_5x5
I1111 04:53:30.663594 11674 net.cpp:453] inception_5a/relu_5x5 <- inception_5a/5x5
I1111 04:53:30.663599 11674 net.cpp:396] inception_5a/relu_5x5 -> inception_5a/5x5 (in-place)
I1111 04:53:30.663605 11674 net.cpp:131] Setting up inception_5a/relu_5x5
I1111 04:53:30.663674 11674 net.cpp:140] Top shape: 25 128 7 7 (156800)
I1111 04:53:30.663679 11674 layer_factory.hpp:75] Creating layer inception_5a/pool
I1111 04:53:30.663683 11674 layer_factory.cpp:55] CUDNN does not support padding or multiple tops. Using Caffe's own pooling layer.
I1111 04:53:30.663688 11674 net.cpp:99] Creating Layer inception_5a/pool
I1111 04:53:30.663692 11674 net.cpp:453] inception_5a/pool <- pool4/3x3_s2_pool4/3x3_s2_0_split_3
I1111 04:53:30.663697 11674 net.cpp:409] inception_5a/pool -> inception_5a/pool
I1111 04:53:30.663703 11674 net.cpp:131] Setting up inception_5a/pool
I1111 04:53:30.663710 11674 net.cpp:140] Top shape: 25 832 7 7 (1019200)
I1111 04:53:30.663713 11674 layer_factory.hpp:75] Creating layer inception_5a/pool_proj
I1111 04:53:30.663725 11674 net.cpp:99] Creating Layer inception_5a/pool_proj
I1111 04:53:30.663729 11674 net.cpp:453] inception_5a/pool_proj <- inception_5a/pool
I1111 04:53:30.663736 11674 net.cpp:409] inception_5a/pool_proj -> inception_5a/pool_proj
I1111 04:53:30.663743 11674 net.cpp:131] Setting up inception_5a/pool_proj
I1111 04:53:30.665118 11674 net.cpp:140] Top shape: 25 128 7 7 (156800)
I1111 04:53:30.665129 11674 layer_factory.hpp:75] Creating layer inception_5a/relu_pool_proj
I1111 04:53:30.665137 11674 net.cpp:99] Creating Layer inception_5a/relu_pool_proj
I1111 04:53:30.665140 11674 net.cpp:453] inception_5a/relu_pool_proj <- inception_5a/pool_proj
I1111 04:53:30.665148 11674 net.cpp:396] inception_5a/relu_pool_proj -> inception_5a/pool_proj (in-place)
I1111 04:53:30.665154 11674 net.cpp:131] Setting up inception_5a/relu_pool_proj
I1111 04:53:30.665226 11674 net.cpp:140] Top shape: 25 128 7 7 (156800)
I1111 04:53:30.665230 11674 layer_factory.hpp:75] Creating layer inception_5a/output
I1111 04:53:30.665236 11674 net.cpp:99] Creating Layer inception_5a/output
I1111 04:53:30.665240 11674 net.cpp:453] inception_5a/output <- inception_5a/1x1
I1111 04:53:30.665256 11674 net.cpp:453] inception_5a/output <- inception_5a/3x3
I1111 04:53:30.665261 11674 net.cpp:453] inception_5a/output <- inception_5a/5x5
I1111 04:53:30.665266 11674 net.cpp:453] inception_5a/output <- inception_5a/pool_proj
I1111 04:53:30.665271 11674 net.cpp:409] inception_5a/output -> inception_5a/output
I1111 04:53:30.665277 11674 net.cpp:131] Setting up inception_5a/output
I1111 04:53:30.665282 11674 net.cpp:140] Top shape: 25 832 7 7 (1019200)
I1111 04:53:30.665285 11674 layer_factory.hpp:75] Creating layer inception_5a/output_inception_5a/output_0_split
I1111 04:53:30.665294 11674 net.cpp:99] Creating Layer inception_5a/output_inception_5a/output_0_split
I1111 04:53:30.665298 11674 net.cpp:453] inception_5a/output_inception_5a/output_0_split <- inception_5a/output
I1111 04:53:30.665303 11674 net.cpp:409] inception_5a/output_inception_5a/output_0_split -> inception_5a/output_inception_5a/output_0_split_0
I1111 04:53:30.665309 11674 net.cpp:409] inception_5a/output_inception_5a/output_0_split -> inception_5a/output_inception_5a/output_0_split_1
I1111 04:53:30.665316 11674 net.cpp:409] inception_5a/output_inception_5a/output_0_split -> inception_5a/output_inception_5a/output_0_split_2
I1111 04:53:30.665324 11674 net.cpp:409] inception_5a/output_inception_5a/output_0_split -> inception_5a/output_inception_5a/output_0_split_3
I1111 04:53:30.665329 11674 net.cpp:131] Setting up inception_5a/output_inception_5a/output_0_split
I1111 04:53:30.665336 11674 net.cpp:140] Top shape: 25 832 7 7 (1019200)
I1111 04:53:30.665340 11674 net.cpp:140] Top shape: 25 832 7 7 (1019200)
I1111 04:53:30.665343 11674 net.cpp:140] Top shape: 25 832 7 7 (1019200)
I1111 04:53:30.665348 11674 net.cpp:140] Top shape: 25 832 7 7 (1019200)
I1111 04:53:30.665350 11674 layer_factory.hpp:75] Creating layer inception_5b/1x1
I1111 04:53:30.665357 11674 net.cpp:99] Creating Layer inception_5b/1x1
I1111 04:53:30.665360 11674 net.cpp:453] inception_5b/1x1 <- inception_5a/output_inception_5a/output_0_split_0
I1111 04:53:30.665367 11674 net.cpp:409] inception_5b/1x1 -> inception_5b/1x1
I1111 04:53:30.665374 11674 net.cpp:131] Setting up inception_5b/1x1
I1111 04:53:30.669082 11674 net.cpp:140] Top shape: 25 384 7 7 (470400)
I1111 04:53:30.669095 11674 layer_factory.hpp:75] Creating layer inception_5b/relu_1x1
I1111 04:53:30.669108 11674 net.cpp:99] Creating Layer inception_5b/relu_1x1
I1111 04:53:30.669112 11674 net.cpp:453] inception_5b/relu_1x1 <- inception_5b/1x1
I1111 04:53:30.669118 11674 net.cpp:396] inception_5b/relu_1x1 -> inception_5b/1x1 (in-place)
I1111 04:53:30.669124 11674 net.cpp:131] Setting up inception_5b/relu_1x1
I1111 04:53:30.669494 11674 net.cpp:140] Top shape: 25 384 7 7 (470400)
I1111 04:53:30.669502 11674 layer_factory.hpp:75] Creating layer inception_5b/3x3_reduce
I1111 04:53:30.669512 11674 net.cpp:99] Creating Layer inception_5b/3x3_reduce
I1111 04:53:30.669515 11674 net.cpp:453] inception_5b/3x3_reduce <- inception_5a/output_inception_5a/output_0_split_1
I1111 04:53:30.669523 11674 net.cpp:409] inception_5b/3x3_reduce -> inception_5b/3x3_reduce
I1111 04:53:30.669530 11674 net.cpp:131] Setting up inception_5b/3x3_reduce
I1111 04:53:30.672018 11674 net.cpp:140] Top shape: 25 192 7 7 (235200)
I1111 04:53:30.672030 11674 layer_factory.hpp:75] Creating layer inception_5b/relu_3x3_reduce
I1111 04:53:30.672036 11674 net.cpp:99] Creating Layer inception_5b/relu_3x3_reduce
I1111 04:53:30.672041 11674 net.cpp:453] inception_5b/relu_3x3_reduce <- inception_5b/3x3_reduce
I1111 04:53:30.672049 11674 net.cpp:396] inception_5b/relu_3x3_reduce -> inception_5b/3x3_reduce (in-place)
I1111 04:53:30.672055 11674 net.cpp:131] Setting up inception_5b/relu_3x3_reduce
I1111 04:53:30.672129 11674 net.cpp:140] Top shape: 25 192 7 7 (235200)
I1111 04:53:30.672134 11674 layer_factory.hpp:75] Creating layer inception_5b/3x3
I1111 04:53:30.672142 11674 net.cpp:99] Creating Layer inception_5b/3x3
I1111 04:53:30.672147 11674 net.cpp:453] inception_5b/3x3 <- inception_5b/3x3_reduce
I1111 04:53:30.672154 11674 net.cpp:409] inception_5b/3x3 -> inception_5b/3x3
I1111 04:53:30.672173 11674 net.cpp:131] Setting up inception_5b/3x3
I1111 04:53:30.678923 11674 net.cpp:140] Top shape: 25 384 7 7 (470400)
I1111 04:53:30.678936 11674 layer_factory.hpp:75] Creating layer inception_5b/relu_3x3
I1111 04:53:30.678943 11674 net.cpp:99] Creating Layer inception_5b/relu_3x3
I1111 04:53:30.678947 11674 net.cpp:453] inception_5b/relu_3x3 <- inception_5b/3x3
I1111 04:53:30.678956 11674 net.cpp:396] inception_5b/relu_3x3 -> inception_5b/3x3 (in-place)
I1111 04:53:30.678962 11674 net.cpp:131] Setting up inception_5b/relu_3x3
I1111 04:53:30.679035 11674 net.cpp:140] Top shape: 25 384 7 7 (470400)
I1111 04:53:30.679040 11674 layer_factory.hpp:75] Creating layer inception_5b/5x5_reduce
I1111 04:53:30.679049 11674 net.cpp:99] Creating Layer inception_5b/5x5_reduce
I1111 04:53:30.679054 11674 net.cpp:453] inception_5b/5x5_reduce <- inception_5a/output_inception_5a/output_0_split_2
I1111 04:53:30.679061 11674 net.cpp:409] inception_5b/5x5_reduce -> inception_5b/5x5_reduce
I1111 04:53:30.679069 11674 net.cpp:131] Setting up inception_5b/5x5_reduce
I1111 04:53:30.680029 11674 net.cpp:140] Top shape: 25 48 7 7 (58800)
I1111 04:53:30.680042 11674 layer_factory.hpp:75] Creating layer inception_5b/relu_5x5_reduce
I1111 04:53:30.680049 11674 net.cpp:99] Creating Layer inception_5b/relu_5x5_reduce
I1111 04:53:30.680054 11674 net.cpp:453] inception_5b/relu_5x5_reduce <- inception_5b/5x5_reduce
I1111 04:53:30.680059 11674 net.cpp:396] inception_5b/relu_5x5_reduce -> inception_5b/5x5_reduce (in-place)
I1111 04:53:30.680065 11674 net.cpp:131] Setting up inception_5b/relu_5x5_reduce
I1111 04:53:30.680140 11674 net.cpp:140] Top shape: 25 48 7 7 (58800)
I1111 04:53:30.680145 11674 layer_factory.hpp:75] Creating layer inception_5b/5x5
I1111 04:53:30.680153 11674 net.cpp:99] Creating Layer inception_5b/5x5
I1111 04:53:30.680156 11674 net.cpp:453] inception_5b/5x5 <- inception_5b/5x5_reduce
I1111 04:53:30.680165 11674 net.cpp:409] inception_5b/5x5 -> inception_5b/5x5
I1111 04:53:30.680171 11674 net.cpp:131] Setting up inception_5b/5x5
I1111 04:53:30.682723 11674 net.cpp:140] Top shape: 25 128 7 7 (156800)
I1111 04:53:30.682735 11674 layer_factory.hpp:75] Creating layer inception_5b/relu_5x5
I1111 04:53:30.682744 11674 net.cpp:99] Creating Layer inception_5b/relu_5x5
I1111 04:53:30.682749 11674 net.cpp:453] inception_5b/relu_5x5 <- inception_5b/5x5
I1111 04:53:30.682754 11674 net.cpp:396] inception_5b/relu_5x5 -> inception_5b/5x5 (in-place)
I1111 04:53:30.682760 11674 net.cpp:131] Setting up inception_5b/relu_5x5
I1111 04:53:30.683235 11674 net.cpp:140] Top shape: 25 128 7 7 (156800)
I1111 04:53:30.683244 11674 layer_factory.hpp:75] Creating layer inception_5b/pool
I1111 04:53:30.683248 11674 layer_factory.cpp:55] CUDNN does not support padding or multiple tops. Using Caffe's own pooling layer.
I1111 04:53:30.683254 11674 net.cpp:99] Creating Layer inception_5b/pool
I1111 04:53:30.683259 11674 net.cpp:453] inception_5b/pool <- inception_5a/output_inception_5a/output_0_split_3
I1111 04:53:30.683264 11674 net.cpp:409] inception_5b/pool -> inception_5b/pool
I1111 04:53:30.683271 11674 net.cpp:131] Setting up inception_5b/pool
I1111 04:53:30.683279 11674 net.cpp:140] Top shape: 25 832 7 7 (1019200)
I1111 04:53:30.683282 11674 layer_factory.hpp:75] Creating layer inception_5b/pool_proj
I1111 04:53:30.683291 11674 net.cpp:99] Creating Layer inception_5b/pool_proj
I1111 04:53:30.683295 11674 net.cpp:453] inception_5b/pool_proj <- inception_5b/pool
I1111 04:53:30.683302 11674 net.cpp:409] inception_5b/pool_proj -> inception_5b/pool_proj
I1111 04:53:30.683310 11674 net.cpp:131] Setting up inception_5b/pool_proj
I1111 04:53:30.684680 11674 net.cpp:140] Top shape: 25 128 7 7 (156800)
I1111 04:53:30.684691 11674 layer_factory.hpp:75] Creating layer inception_5b/relu_pool_proj
I1111 04:53:30.684700 11674 net.cpp:99] Creating Layer inception_5b/relu_pool_proj
I1111 04:53:30.684705 11674 net.cpp:453] inception_5b/relu_pool_proj <- inception_5b/pool_proj
I1111 04:53:30.684710 11674 net.cpp:396] inception_5b/relu_pool_proj -> inception_5b/pool_proj (in-place)
I1111 04:53:30.684728 11674 net.cpp:131] Setting up inception_5b/relu_pool_proj
I1111 04:53:30.684805 11674 net.cpp:140] Top shape: 25 128 7 7 (156800)
I1111 04:53:30.684810 11674 layer_factory.hpp:75] Creating layer inception_5b/output
I1111 04:53:30.684815 11674 net.cpp:99] Creating Layer inception_5b/output
I1111 04:53:30.684819 11674 net.cpp:453] inception_5b/output <- inception_5b/1x1
I1111 04:53:30.684824 11674 net.cpp:453] inception_5b/output <- inception_5b/3x3
I1111 04:53:30.684828 11674 net.cpp:453] inception_5b/output <- inception_5b/5x5
I1111 04:53:30.684833 11674 net.cpp:453] inception_5b/output <- inception_5b/pool_proj
I1111 04:53:30.684839 11674 net.cpp:409] inception_5b/output -> inception_5b/output
I1111 04:53:30.684845 11674 net.cpp:131] Setting up inception_5b/output
I1111 04:53:30.684851 11674 net.cpp:140] Top shape: 25 1024 7 7 (1254400)
I1111 04:53:30.684855 11674 layer_factory.hpp:75] Creating layer pool5/7x7_s1
I1111 04:53:30.684861 11674 net.cpp:99] Creating Layer pool5/7x7_s1
I1111 04:53:30.684864 11674 net.cpp:453] pool5/7x7_s1 <- inception_5b/output
I1111 04:53:30.684871 11674 net.cpp:409] pool5/7x7_s1 -> pool5/7x7_s1
I1111 04:53:30.684876 11674 net.cpp:131] Setting up pool5/7x7_s1
I1111 04:53:30.684943 11674 net.cpp:140] Top shape: 25 1024 1 1 (25600)
I1111 04:53:30.684948 11674 layer_factory.hpp:75] Creating layer pool5/drop_7x7_s1
I1111 04:53:30.684953 11674 net.cpp:99] Creating Layer pool5/drop_7x7_s1
I1111 04:53:30.684957 11674 net.cpp:453] pool5/drop_7x7_s1 <- pool5/7x7_s1
I1111 04:53:30.684962 11674 net.cpp:396] pool5/drop_7x7_s1 -> pool5/7x7_s1 (in-place)
I1111 04:53:30.684967 11674 net.cpp:131] Setting up pool5/drop_7x7_s1
I1111 04:53:30.684973 11674 net.cpp:140] Top shape: 25 1024 1 1 (25600)
I1111 04:53:30.684975 11674 layer_factory.hpp:75] Creating layer loss3/classifier
I1111 04:53:30.684983 11674 net.cpp:99] Creating Layer loss3/classifier
I1111 04:53:30.684985 11674 net.cpp:453] loss3/classifier <- pool5/7x7_s1
I1111 04:53:30.684993 11674 net.cpp:409] loss3/classifier -> loss3/classifier
I1111 04:53:30.684998 11674 net.cpp:131] Setting up loss3/classifier
I1111 04:53:30.694495 11674 net.cpp:140] Top shape: 25 1000 (25000)
I1111 04:53:30.694509 11674 layer_factory.hpp:75] Creating layer loss3/classifier_loss3/classifier_0_split
I1111 04:53:30.694515 11674 net.cpp:99] Creating Layer loss3/classifier_loss3/classifier_0_split
I1111 04:53:30.694519 11674 net.cpp:453] loss3/classifier_loss3/classifier_0_split <- loss3/classifier
I1111 04:53:30.694527 11674 net.cpp:409] loss3/classifier_loss3/classifier_0_split -> loss3/classifier_loss3/classifier_0_split_0
I1111 04:53:30.694535 11674 net.cpp:409] loss3/classifier_loss3/classifier_0_split -> loss3/classifier_loss3/classifier_0_split_1
I1111 04:53:30.694541 11674 net.cpp:409] loss3/classifier_loss3/classifier_0_split -> loss3/classifier_loss3/classifier_0_split_2
I1111 04:53:30.694547 11674 net.cpp:131] Setting up loss3/classifier_loss3/classifier_0_split
I1111 04:53:30.694552 11674 net.cpp:140] Top shape: 25 1000 (25000)
I1111 04:53:30.694556 11674 net.cpp:140] Top shape: 25 1000 (25000)
I1111 04:53:30.694561 11674 net.cpp:140] Top shape: 25 1000 (25000)
I1111 04:53:30.694564 11674 layer_factory.hpp:75] Creating layer loss1/loss
I1111 04:53:30.694569 11674 net.cpp:99] Creating Layer loss1/loss
I1111 04:53:30.694573 11674 net.cpp:453] loss1/loss <- loss1/classifier_loss1/classifier_0_split_0
I1111 04:53:30.694578 11674 net.cpp:453] loss1/loss <- label1_argmax_label1_0_split_0
I1111 04:53:30.694583 11674 net.cpp:409] loss1/loss -> loss1/loss1
…
